trained_agent_Snake.pt (torch, 157072 bytes, 8 tensors)

weight f4 [128, 33]
00000000: f777 2a3f f07d 403e 2fd1 93be 7955 c13e
00000010: 8b6c ffbd dbec 2e3d a1a6 dd3e 9813 923b
00000020: f9d6 1dbf 1627 6c3e bb43 0e3e 215f 29bf
00000030: 0160 a93e 91b1 42bf 0175 29be fa09 1abd
00000040: d866 0abe 26e6 3d3f 1948 b23c 24da b53c
00000050: baa9 023e b442 cb3e 16a4 833e 4f2b f13e
00000060: 2a86 053e 1956 1ebf dec7 8a3e 3578 03bd
00000070: 89e7 7f3d 1302 6bbe 7b6c a9bd e366 0abf
00000080: 7a98 b23e fbd9 29be afdf d73d 9ef1 083f
00000090: f8cc 983f 09ba d63e 59ad de3e 1442 3ebd
000000a0: cbca a1be 4381 3e3e 9b9d 373e f722 c63c
000000b0: abd3 343e 6703 873e b95c a9be 1d24 54be
000000c0: 45ca 59be db41 e23e c601 99be a525 993e
000000d0: ee93 3bbe 6fea ebbe 8eea 953c dc0d 9d3e
000000e0: 5a13 6f3a 8bcd 363d 0dc5 c5be 1411 d63d
000000f0: 491e a83e 29a4 043d 3550 4abe 3530 173e
00000100: fa34 65be 6622 89be 8b85 0d3f 60d2 523f
00000110: e1b4 20be 84fb c3be 04ca acbe b31e cc3d
00000120: d456 a43e b716 cc3e 63b5 c93e c469 ca3e
00000130: 761e cf3e 93dc c83d 941c 91be 5299 8a3e
00000140: b57a 01be 44e4 e43e a6f4 523e 4fdf b1bd
00000150: f7ba 043f d093 a63e 4d46 923e 0711 49be
00000160: 7dbb 0bbe 206e 9f3e 9b3a 9f3d 62da c43e
00000170: ab37 a53e 93b6 a93e f3fb 013f 220a 643e
00000180: 2fc2 623e 9132 143f c84d 7d3e bf65 653f
00000190: d1e9 b9bd 0aff 913f 6749 c6bf 89be e63d
000001a0: 6c71 15bf d39d bbbe 48f9 0d3c 8709 443e
000001b0: 057a 94be d6f8 da3e 5b64 ef3d 7413 c73e
000001c0: fa95 93be 5d75 863d 5b6d fe3d 6e99 913e
000001d0: 0c5b 783e e3fa debe 0d3a ccbe a72d c13b
000001e0: 2533 92bc 0993 633d f5f2 46be 851c 633e
000001f0: 8c2d 2d3e 59af 953e 9f3d 39bd fb6c 4f3d
00000200: d6cf 923e b6ea e83d aef1 723d 95b2 a9be
00000210: c447 6abe f2dd f9be b76a c8bd 7216 83be
00000220: 2f5b 2c3f c782 02be cd57 c93e 2408 2d3f
00000230: 02b2 a83e e695 133f 399a f4bc e3d3 b03e
00000240: 4e66 093e 3571 033f 6305 91be 66fc 8a3e
00000250: 1ed7 13bd ec09 e63d 2f86 81bd 1973 02be
00000260: e94a 043e ce9f 083e e4e2 d13d 3ba1 90bd
00000270: d018 2f3e 6f4b 6bbe 7006 d23e ea1b f73d
00000280: c050 643d b7a9 0fbf 313d 57be 1d3a d8be
00000290: 7141 813e 5208 8f3e a819 35bf 7da4 1f3e
000002a0: fc09 543e dd80 90be a852 b7bd 1bd7 943e
000002b0: ac12 a33e e2b7 0b3f 23b9 c1bd f286 3ebe
000002c0: 7fc2 1a3e db7e e0bc 0bf1 a73d 3d70 083f
000002d0: c2c7 423d f56a 7abe 3983 423e cce8 723e
000002e0: 194e 09bf 8aa9 7e3e 1e1b 9bbe de56 15be
000002f0: 247a c73e e895 42be 128b b73d 97f6 6bbe
00000300: bafc b8be f366 4b3e cdc8 ab3e 679c 38bd
00000310: 451e a7be 89ba 90be 08fd 443f e603 2f3f
00000320: 4dd4 393e a0c0 c53e a0b1 adbd 5e35 acbd
00000330: 6dec a43c 27a1 0ebe 233c 01bd e1b3 343d
00000340: d8ca 373e 1aa6 b8bd 00ae c53e 2cb2 af3e
00000350: 1bf5 a03e 8817 6d3e 50f1 6a3e 1074 313e
00000360: 760e f63d 8a3e ddbd b65c 85be 86d7 52bc
00000370: d370 403e 4378 d13e 0ca6 45be 9767 853e
00000380: 1ecb 8e3d c6d0 603d 1e19 f7bd f34b 113f
00000390: 68d8 883e e1f5 ed3e a960 8a3e f6ce af3e
000003a0: e133 bdbf ce24 cd3e 2287 4d3f 3ad1 9a3c
000003b0: ab80 b03e 31f7 b93d f16f 40bd bd15 9f3e
000003c0: 7324 3a3e a90e 66be 478e 2f3e ebf2 763e
000003d0: 6f0e a5bd 964d 643d a124 0c3e 84a9 e6bd
000003e0: edf0 a93d f190 1c3d 6196 433e a728 e4bd
000003f0: 5268 94be 1997 e13e 6d06 f23e cee0 593d
0.665893 0.18798041 -0.28870532 0.37760523 -0.12471875 0.04270635 0.4329119 0.004457902
-0.6165615 0.23061785 0.13893025 -0.6616078 0.33081058 -0.76052195 -0.1654854 -0.03760717
-0.13515794 0.74179304 0.021762894 0.022198744 0.12760058 0.39699328 0.25711125 0.47103354
0.13039461 -0.61850125 0.27105612 -0.03209706 0.06247667 -0.2295001 -0.08272644 -0.5406324
0.34881955 -0.16587059 0.10540711 0.5349368 1.1937551 0.4193881 0.4349163 -0.046449736
-0.3160003 0.18603997 0.17931215 0.024186594 0.1765887 0.26369783 -0.33078554 -0.20716901
-0.21268566 0.4419087 -0.29884166 0.29911533 -0.1831815 -0.46077296 0.018300321 0.30674636
0.000912001 0.044629615 -0.386269 0.10452476 0.32835606 0.032383118 -0.19757159 0.14764483
-0.2238349 -0.26784056 0.55281895 0.82352257 -0.15694 -0.3827783 -0.33747876 0.09966793
0.32097495 0.3986108 0.393962 0.39533818 0.40452927 0.09807696 -0.28342116 0.270701
-0.12644465 0.44705403 0.20601138 -0.08685171 0.51847786 0.32534647 0.2856926 -0.19635402
-0.1364574 0.31138706 0.0777485 0.38447863 0.32269034 0.33147106 0.5077507 0.2226949
0.22144388 0.5788966 0.24736702 0.8960838 -0.090778 1.1405957 -1.5491151 0.112668104
-0.58376193 -0.36643848 0.00866539 0.1914426 -0.28999344 0.42767972 0.11689063 0.3888203
-0.2882536 0.06565354 0.12423202 0.2843737 0.24253482 -0.43550786 -0.3988804 0.0058953348
-0.017846653 0.055560146 -0.19428618 0.22178848 0.16911906 0.29235342 -0.045224782 0.05064104
0.2867419 0.113728926 0.059312515 -0.3314406 -0.22878939 -0.48802143 -0.09785979 -0.25603062
0.67326635 -0.127452 0.393248 0.67590547 0.3294831 0.576506 -0.029858695 0.34536657
0.13417932 0.51344615 -0.28324422 0.2714569 -0.036093824 0.11232361 -0.063244216 -0.12739219
0.12919201 0.1334221 0.10248354 -0.07062002 0.17099309 -0.22977994 0.41020536 0.12065871
0.05574107 -0.5611834 -0.21019436 -0.42231837 0.2524524 0.27936035 -0.70742273 0.15590091
0.20706934 -0.28223315 -0.08951312 0.29070362 0.31850183 0.5457746 -0.0945914 -0.18606165
0.15113257 -0.02740424 0.08200272 0.5329626 0.047553785 -0.24454863 0.1899537 0.23721617
-0.5363479 0.24869362 -0.30294126 -0.14583918 0.38960373 -0.19002497 0.089620724 -0.23043285
-0.36130315 0.19863491 0.33551636 -0.045071032 -0.3264028 -0.28267315 0.76948595 0.68365324
0.18147393 0.38623524 -0.08481145 -0.084086165 0.020132268 -0.13928662 -0.03155149 0.04411686
0.17948472 -0.09016056 0.38609314 0.34315622 0.31437 0.23153508 0.22943616 0.1732943
0.12014477 -0.10802944 -0.26047295 -0.012868768 0.18793039 0.40912065 -0.19301623 0.26055595
0.06972335 0.054886602 -0.120653376 0.56756514 0.26727605 0.46476653 0.2702687 0.34337586
-1.4781457 0.40067142 0.8028432 0.018898595 0.34473166 0.09080351 -0.046981756 0.31071272
0.18177967 -0.2246653 0.17144118 0.24116103 -0.080593936 0.055738054 0.13685848 -0.11262801
0.08297906 0.038224164 0.19100334 -0.11140566 -0.2898584 0.4406059 0.47270527 0.053192906

bias f4 [128]
00000000: f35e 1a3f 0e61 063f 12d2 94be 4fba 2f3f
00000010: 4fd0 023f 3ef5 c63e 0af6 e7be a20c 193f
00000020: 35a4 243f 7ee7 093f 72c4 8b3e 5544 733e
00000030: 39fb 903e 7260 203f a4cb a4be 8513 8f3e
00000040: f598 a43c ba89 c83e bd0b 6dbe 0c75 043f
00000050: b5ac 8bbd bee3 103f 42f3 f53e d791 6cbe
00000060: 3817 043c 9769 12be 1fef 3bbe 7666 c63e
00000070: eda9 a13e 8eab b13e 95a8 37be 449a 323f
00000080: 05af 153f 9b58 9e3e 8a5d 043f 86c1 1a3f
00000090: 97b5 47be 2fda 06bf aaee 03be 11b2 0d3f
000000a0: d16f e73c e24d 033f bd0f 93be 83ff c43e
000000b0: 5cd7 ea3e 3bf4 033f 38b5 c73e c980 fd3e
000000c0: d2fe eb3e 797e 80be c165 10be bcd3 af3e
000000d0: e6c2 3c3e fc5d 61bd e644 be3e c623 d73d
000000e0: 450d 853e d1ec 69be 14b8 bf3c c254 c03e
000000f0: 6a14 0b3f 0be7 91bb e678 6ebc 201a 083f
00000100: 0246 423e 095d cb3e 89a7 c63e 3a7a a2be
00000110: 3ff9 023d b4ce 953e b5ef e23e 807b c43e
00000120: 9127 8a3d e96e 323f 949e 603d 6b02 d93e
00000130: 9949 46bc 0e6d e2be ac56 ae3c 7add 513e
00000140: 8747 4f3e 299d a93e 5ab2 143f c8d2 ecbe
00000150: c240 a83e 398d 0a3f 6fbc a03e 8824 243f
00000160: cfb2 b83e a54b 5f3e 00f6 d93e 7f5f e03e
00000170: 80d2 033f ed87 3cbe 3da5 0fbf 5c4c 3a3f
00000180: 58b8 ef3e 1daa 163f f235 e33e 6a05 c03e
00000190: e03f f83e c856 283f 3879 073f 11f1 a03e
000001a0: 690a 1b3f 9af9 c43e 2fc1 a23e fbb9 203f
000001b0: 65ed 2c3e 188b ff3e 1f25 be3e 4573 073f
000001c0: acdb afbd 5a6f f13e 4a12 37be 0a2c 4d3e
000001d0: 6476 2e3e e97f fe3e 549d 24be 0a1c 9d3e
000001e0: c6f6 903e 31f1 d5be 47af 0d3f a28d a83e
000001f0: b597 0d3e c92f a13e dd32 aabe a4e4 123f
0.6030113 0.52491844 -0.2906652 0.6864366 0.51099104 0.3885898 -0.453049 0.597849
0.6431306 0.53868854 0.27298313 0.23756535 0.28316668 0.62647164 -0.32186615 0.2794458
0.020092467 0.39167577 -0.23149009 0.517411 -0.068200506 0.56597507 0.48037153 -0.23102508
0.008062176 -0.14298092 -0.18352936 0.38750046 0.31574956 0.34701198 -0.17935403 0.6976664
0.58470184 0.30926976 0.5170523 0.60451543 -0.19502865 -0.5267667 -0.12884012 0.5534983
0.02825156 0.51290715 -0.28722945 0.3847619 0.4586743 0.5154454 0.39005446 0.49512318
0.4609285 -0.2509649 -0.14101316 0.34341228 0.18433723 -0.05502127 0.3716194 0.1050487
0.25986686 -0.22844245 0.023403205 0.37564665 0.54328024 -0.0044525913 -0.014555192 0.53164864
0.18972018 0.39719418 0.38799694 -0.31733876 0.03197598 0.29259264 0.44323507 0.38375473
0.06745828 0.69700485 0.054838732 0.42384657 -0.012102508 -0.44223827 0.021281563 0.20494643
0.2024213 0.33127716 0.5808464 -0.46254563 0.32861906 0.5412174 0.31393763 0.6411824
0.3607392 0.218062 0.42570496 0.43822858 0.5149307 -0.18411227 -0.5611151 0.72772765
0.4682033 0.5885332 0.44377095 0.3750413 0.48486233 0.6575742 0.5291934 0.3143392
0.6056276 0.3847168 0.31788012 0.62783784 0.16887434 0.49910808 0.37137696 0.5291026
-0.08586821 0.47155267 -0.1787807 0.20036331 0.1703735 0.49706963 -0.16075641 0.30685455
0.28313273 -0.41785577 0.55345577 0.32920557 0.13827403 0.3148177 -0.3324193 0.5738013

weight f4 [128, 128]
00000000: fdae 8bbe 16d3 55be 2d63 6bbe ae32 0a3e
00000010: b79c 113e a356 d43d d107 f9bd 7a33 913d
00000020: 3cce afbd 25dc 623e 023f bdbc 0c43 81be
00000030: a8c9 fabe 8c25 38bc 2213 f1bc 09a6 ab3d
00000040: b4aa 48be 8b1a 35be e4cf c1bd 204d 00be
00000050: 3b02 09be 9eb4 64bd 0bd8 263c 8880 8dbe
00000060: d93e 5fbe 1ecb 303e b29e 0bbe bd19 7cbe
00000070: 9685 5ebe 25c2 c53c 9494 69bc 8d26 ab3e
00000080: 270a 03be 19ff 18bf fe38 e1be 3b52 0fbe
00000090: b61b 943e 879b 033d a8ea 5ebe 0304 5ebe
000000a0: 3b17 273e 465f 143e e7b0 433d 6061 3dbd
000000b0: 3e07 cbbd 5b87 4c3e b2c7 a13d 2ac5 8f3c
000000c0: 05e7 ad3e 7a62 153e 0a62 5f3d b0a9 b9bd
000000d0: 66ec d53e 7757 10be 3063 0f3e fe5f 4dbd
000000e0: 7bc3 a2bd 61dc 8dbe 6912 123e 11c4 3cbd
000000f0: cf48 8cbd 1d33 553e 8325 77be e984 42be
00000100: c74f 6a3e 69bc 683e 5456 ecbd 5729 813d
00000110: 927a 5abe 0cbf 76be 2e32 46be c3ac 7cbe
00000120: 9179 d6bc 9cfc 473e 7cb9 783e bbe3 9abe
00000130: 5665 87be ce15 b8be 1f0d 403e 430b a43e
00000140: 7fc0 2f3e 699e f53d 318b 8d3e c5f0 8dbe
00000150: b5e2 adbe 6566 a43c d34f 43be 84b2 6cbd
00000160: f7cf 4bbd c188 7a3d 5044 f2bd 741e 35be
00000170: a664 3f3d bb13 8fbd 8afb 97be 35a8 3f3e
00000180: dd28 1d3c cd56 9a3e 8fa0 a93c e725 acbe
00000190: 849e ee3c 5fbc 1d3e 81e9 68be df9b acbe
000001a0: a5ad d1be bb03 87be 96f6 e6bd f74d b4bd
000001b0: 2c52 413e 01d8 a0be 8521 68be 6d10 46be
000001c0: adab ecbe e9c5 a2be bb57 03be fd98 0bbe
000001d0: 4557 f13b 8b2f eeba ecf1 08be 3540 883e
000001e0: 61dd ec3d 7985 a2bd 5a86 783d 3f3d 4dbe
000001f0: 8d81 96bd b8bf c63c 1cf3 60bd 5ca6 623e
00000200: ff74 70be bbba 723e dd8e 27be 473d 2abd
00000210: e8b1 7dbe 2c53 b13d 8d4a 9b3c c977 383e
00000220: 1446 a9be 4a54 7c3d f460 0bbe d703 b9bd
00000230: ba38 0bbe 0ef8 253e 6ca5 ccbe 6f71 fdbe
00000240: 9635 c13e e555 85be 7fb1 aabd 43ea 843d
00000250: 615e 8a3e e853 253d b4da 493e 4413 20be
00000260: abc6 833e 9439 6ebd 37a5 22be cc31 36be
00000270: 037c 2f3c 2a87 503d 1435 0e3c 0eb7 b2bd
00000280: 0295 a1bd 44ec f4bd b4c3 c93e 672a 923e
00000290: a224 143e 5cc4 a6be 14e1 1a3d aab4 113e
000002a0: b33d 493e 093d e2bd cc07 133e d4ce bb3e
000002b0: 357d 5d3e 94f6 103e 0cdc b7bd f4ba eebd
000002c0: bdcf dd3e 37ac 10bd e0e4 f9bc 9425 2ebe
000002d0: ae86 943d 5885 6ebe ffbe 173e 9025 123e
000002e0: 0bc9 a1bd 07b9 33be d46e 173e 105d 73be
000002f0: b379 9abd b28f 4c3d 4599 20be 7fca a93d
00000300: 7b5c d0be f639 0fbd 75fd ad3e da47 3ebe
00000310: 8ac3 0d3d 0111 acbe dc01 a53e 5d98 c23d
00000320: bc13 873d 63ec 323e 1bb1 51be 1115 d83e
00000330: 76a1 b6bd 8b0e 43be 4fd0 8c3d 6ff0 ce3e
00000340: eeef 7dbd edb2 363d eac5 b3be 146b e1bd
00000350: 278f 753e ba60 2d3e 9ae5 1fbe 352a 3e3c
00000360: 7f58 bfbc a540 a73e d224 1b3e b7d4 19be
00000370: 45e1 103f 1609 9ebd 9969 70be 1d4a 0f3d
00000380: 344b 2b3e c1fc fb3e 5d9f 653e e357 9e3e
00000390: 2080 92be b6e8 b33e b073 21bd 213e d63e
000003a0: 8b8d 33bd 3846 c83e 47ab 6b3e 10c4 ddbd
000003b0: 9f12 a1bd 31ac 44be a2e6 2f3d 985f e63d
000003c0: 6105 2cbf 9bb7 82bc 5279 0ebe dae3 1c3d
000003d0: 3c81 f43d be1d 3e3e 3a17 75be bf87 d93d
000003e0: 226c a9bd 7d4b 2abd 3fe5 ae3c 65cf e23d
000003f0: ebae 89bd 1aae 353d 59e4 103e fbbd 5dbe
-0.27281943 -0.20881304 -0.22987051 0.13495895 0.14219938 0.10368087 -0.12159694 0.070898965
-0.08584258 0.22154291 -0.023101334 -0.25246465 -0.48981977 -0.011239421 -0.029428069 0.08381278
-0.19596368 -0.17685907 -0.0946348 -0.12529421 -0.13379757 -0.055836312 0.010183345 -0.27637124
-0.21801318 0.17264983 -0.13634756 -0.24619193 -0.21730646 0.024140427 -0.014256615 0.3342785
-0.12796842 -0.5976425 -0.43988794 -0.13996212 0.28927392 0.032130744 -0.21769202 -0.21681218
0.16317455 0.14489469 0.04777613 -0.046235442 -0.09913491 0.19973509 0.07899417 0.01755007
0.33965316 0.14588347 0.054536857 -0.090655684 0.4178192 -0.14095865 0.14002681 -0.050140373
-0.07947441 -0.27707198 0.14264835 -0.04608542 -0.06849825 0.2082028 -0.24135403 -0.18996014
0.22881995 0.22728123 -0.11539903 0.06306713 -0.2133582 -0.24096316 -0.1935508 -0.24675278
-0.026181014 0.19529957 0.24289507 -0.3025187 -0.264445 -0.35954136 0.18755005 0.32039842
0.17163275 0.11993105 0.27645257 -0.27722755 -0.33962026 0.020068357 -0.1907342 -0.057787433
-0.049758878 0.061165575 -0.11829436 -0.17687398 0.046726845 -0.06986185 -0.29684097 0.1871651
0.009592262 0.3014435 0.020706443 -0.33622667 0.02912832 0.15403889 -0.22745325 -0.3371267
-0.40952793 -0.26370034 -0.11277501 -0.08803933 0.18879002 -0.31414798 -0.22669037 -0.19342203
-0.46224728 -0.31791618 -0.12826435 -0.13632579 0.0073651397 -0.0018172128 -0.13373536 0.26611486
0.11565662 -0.07935614 0.060675003 -0.20042895 -0.073489286 0.02426134 -0.054919347 0.22133774
-0.2348213 0.23704045 -0.16363092 -0.041562345 -0.24774897 0.08658442 0.018956447 0.18014444
-0.33061278 0.06160382 -0.13611203 -0.090339355 -0.13595858 0.16207907 -0.39969957 -0.49500605
0.37736195 -0.26042095 -0.08334636 0.064899944 0.2702513 0.040363222 0.19712335 -0.15632349
0.2573751 -0.05816038 -0.15883337 -0.17792434 0.010710719 0.050910152 0.008679647 -0.08726321
-0.07889749 -0.119591266 0.39407122 0.28547975 0.144671 -0.32571685 0.037812307 0.14229074
0.19652443 -0.11046798 0.14358443 0.36681235 0.21629794 0.14156562 -0.089775175 -0.11656752
0.43322554 -0.035320487 -0.030504644 -0.17006522 0.072522506 -0.23293054 0.14818953 0.14272141
-0.07899674 -0.17551051 0.14788371 -0.2376597 -0.075427435 0.049941726 -0.15683468 0.08290576
-0.40695557 -0.034967385 0.33982435 -0.18582097 0.03461031 -0.33606723 0.3222798 0.09501717
0.06595561 0.17472987 -0.20477717 0.42203572 -0.08917515 -0.19048516 0.06875669 0.4041781
-0.061996393 0.04460423 -0.35111934 -0.11006752 0.2398039 0.1693143 -0.1561493 0.011606743
-0.023357628 0.32666507 0.15150765 -0.1502255 0.56593734 -0.07716577 -0.23477782 0.03498279
0.16727906 0.49216273 0.22424074 0.30926427 -0.28613377 0.35138482 -0.03941697 0.41844276
-0.043836158 0.39116073 0.23014556 -0.108284116 -0.0786488 -0.19206311 0.042944558 0.11248702
-0.6719571 -0.01595669 -0.13913468 0.038303234 0.11938712 0.18566033 -0.23934641 0.10621595
-0.08272578 -0.041575897 0.021349547 0.110747136 -0.06722816 0.04435549 0.14149608 -0.21654503

bias f4 [128]
00000000: e78d d6bc 7033 b03e 404c 4abd 30d4 d13e
00000010: 0f9f 9f3e 118f 8a3e 8bcf 6bbd 873e b93e
00000020: 3d86 5a3e 5b23 463d ed8f cc3e 6f2f a03e
00000030: 1235 c33e b76a d4be 7801 e6be 5246 41be
00000040: 3b83 ea3e 0bbb 4f3e d90b 7ebd 8f2d bf3e
00000050: 02ce 8cbe 018c 82be 0074 febd 7ecc c23e
00000060: 0563 adbd b12a 99bd 77b2 933e a29e 0abe
00000070: 0194 c1be 1f76 903e b754 c13e 605d ff3d
00000080: 0306 623e cc03 13bd b2db b1be 6a0b b13e
00000090: f68f 593e 5483 c8bc 09fe 93bc 1103 043f
000000a0: f854 6ebe 7926 15be cd6d e23d e8d3 5d3e
000000b0: 24c9 2d3e 5031 b73e d041 dd3e 81ae f5bd
000000c0: 2e74 ee3e 4e35 0cbd 04c1 d7bd 8acd d7bc
000000d0: cb98 93bd 9119 b63d fd3f 343e cd21 7d3e
000000e0: a855 dabd 621e da3d 0f26 f83e 110f aa3e
000000f0: b37f dd3e 2494 593e 65ca 74bd 865f a03e
00000100: 383d e03e e281 8e3e d7e7 613e 19d1 9e3e
00000110: d398 a03e 2e26 423d b361 0e3f 8351 b7bd
00000120: b50c 46be 29af 38bc bba0 28be aad1 e2bd
00000130: 6af0 f4be e3fa 84bd 2243 0c3e 92a8 a03e
00000140: 3e95 cc3e 4a02 62be 5168 a6be aaa7 bb3e
00000150: 29b5 99be 4a29 a93e bef1 9d3e b64d 14bd
00000160: de63 e83e c289 62be 2f70 7e3e 0c86 16be
00000170: bb98 be3e ce03 a03e 4d91 863e 034d 6abe
00000180: 824a 7f3e 8690 a5bd 7a2a 873e 7c61 15be
00000190: 2f19 883e b41d e7bd 0af5 a13e 3e01 b33e
000001a0: 8ce9 3ebe 12a7 c83e 323c d13e 4681 0f3d
000001b0: 996f 0a3e 2f24 f9bc 1a0f e2be 7cc6 7f3e
000001c0: 0094 36be 4144 a33e cc8d f6bd 98ee b13e
000001d0: 3386 4ebe 294d 82be 9973 093e 6620 dfbe
000001e0: ea9b e7bd 5d4a 3bbe 874a dc3e b1c7 e63e
000001f0: d71c d13c ad4a ddbe ea5f f1bd eb24 af3e
-0.026190711 0.34414244 -0.049389124 0.409822 0.3117604 0.27062276 -0.057570975 0.36180517
0.2134027 0.04837356 0.39953557 0.3128619 0.38126427 -0.41487667 -0.44922996 -0.18874481
0.45803246 0.20286195 -0.062023018 0.37339446 -0.2750092 -0.2549744 -0.12424469 0.3804664
-0.08466152 -0.07478846 0.28847095 -0.13537076 -0.3780823 0.2821512 0.37759945 0.12468982
0.22072606 -0.035892293 -0.34737927 0.3457902 0.21246323 -0.024476685 -0.01806547 0.5156718
-0.232746 -0.14565457 0.11056099 0.21662867 0.1697126 0.3577981 0.43214273 -0.119961746
0.46573013 -0.034230523 -0.10534862 -0.026343126 -0.07206877 0.08891595 0.17602535 0.24719925
-0.10660869 0.10650326 0.48466536 0.3321462 0.4326149 0.21247917 -0.05976333 0.3132288
0.43796706 0.27833468 0.22061096 0.31018904 0.31366596 0.047399692 0.5561783 -0.08951094
-0.19340785 -0.01127223 -0.16467564 -0.110751465 -0.4783967 -0.06493165 0.13697484 0.3137861
0.39957613 -0.22071186 -0.32501462 0.36651355 -0.30021027 0.33039314 0.30848497 -0.036206923
0.45388693 -0.22122863 0.24847482 -0.14699572 0.372259 0.31252903 0.2628273 -0.2288094
0.24930766 -0.08084206 0.26399595 -0.14587969 0.26581714 -0.11284962 0.31632262 0.34961885
-0.18643779 0.39189965 0.40866238 0.035035394 0.13519134 -0.030412761 -0.44152147 0.2497806
-0.17829895 0.3188801 -0.12038764 0.34752345 -0.2016838 -0.25449494 0.13423003 -0.43579406
-0.11309035 -0.18290086 0.4302561 0.45074227 0.025526447 -0.43221036 -0.11785872 0.34207854

weight f4 [128, 128]
00000000: 807b 9a3e c6a4 b53e 3bc1 8bbe 1d65 3d3e
00000010: 9b37 0b3e 4402 0ebd 77bf 043f 6f5b 0c3e
00000020: 34bf f03d 984d e43e 70b2 c53d 5ace 6b3e
00000030: cb27 2dbe 33b6 7fbe d569 2cbe 1456 473e
00000040: fef7 323d 9ee9 3e3e 7f66 e63e 4f2c 3a3e
00000050: ff3c d9bd e2cc 4ebe 5c37 debe cf45 8f3e
00000060: e74d 19be 9e4b 073f ad8c 043e fa27 3ebe
00000070: 8ade f5bc 1267 e53e 13d8 c83e 133a c33d
00000080: 3522 153e 6745 303c 8a3e 753d 16bd d63d
00000090: 027c 343e 6709 a73e d541 823e 6975 9e3d
000000a0: 12f8 0b3e 4fe6 18bd aa8f 1a3e f6e0 7a3e
000000b0: 6152 c33e 524d 06be 7c86 eabd 7a8d 6c3e
000000c0: 83a2 463c ca3b 36bf 6eb4 8abd 7850 3ebf
000000d0: 5d53 a0be 9df3 783e 04ce 8ebe cddf d43c
000000e0: c5cb 54be 9c16 1ebd a3ac 383e 66a0 0dbd
000000f0: c690 92bd e2a4 1a3e 4422 c83e 080d d43c
00000100: 6b59 3cbc 9ee7 cebd 6f18 453e c390 5dbd
00000110: 26a5 12be 5875 adbe 7202 6ebd 2ed8 97bc
00000120: 062a 85be e91c df3e 9571 01be cbfc b23c
00000130: a81b ae3b 2d93 cbbd 3c59 a33e 7036 493d
00000140: 490a dd3d 2f9f 123e bf57 92bd c59d 14bc
00000150: 4b7b f73c cbb1 863d 7376 54be d592 103e
00000160: 8248 b13d 3d0e edbc 45de e13e ca17 93bd
00000170: 2b69 923c 9ad6 943c b84c 8e3d 749e 02be
00000180: 0841 87bc 376c 3cbf 44fd f73d 6b6b 173d
00000190: ed57 ef3d 1e8d 233e afbc 05be 29a4 3b3e
000001a0: cf22 6fbd 1c6d aebd 2ff0 823e ef05 bd3e
000001b0: c90a 093e 7092 86be fe3f 89be dffa 303d
000001c0: 5a11 093e a921 383e 52e2 613d fa25 333e
000001d0: f5ab 86be dae8 adbe 9988 d53b 6c5f b93c
000001e0: fc9b d23d a354 5cbe 006d 9a3e ce59 613e
000001f0: 0488 abbc dac7 bebd 6eec dcbe ef21 a13e
00000200: 820a a5be d32b 41be be8b 113e a659 3e3e
00000210: 6969 75be c7e8 ccbe 25c0 0fbf 3053 203e
00000220: fd6b 703c 0b88 04bf 583d 5bbd b9d4 09bd
00000230: f8da 2b3e 86c5 d13d 1158 ce3d 70f1 e6be
00000240: 290b bfbd 29ed 133e d768 6dbe 7b2d 20be
00000250: c97f 533d 8b4b 13bd a732 ee3e 0f6e 9d3d
00000260: b75d 603e 1424 7fbd d303 9abe d682 b53e
00000270: 8b16 7fbe ef2b 4fbe 8f8f 803c 544f b4be
00000280: 6582 763e d2a8 f43d 9652 033e 2c11 ea3d
00000290: 54d8 5c3e 2f9b b6bd acb1 67bd f3b6 963e
000002a0: 2c60 773e a1e6 9d3d fb21 a63d 939c 953e
000002b0: b0bb 91be 4047 80be ae06 c23e 4236 31be
000002c0: f8c9 473d c970 4b3f bd26 ac3d 55b2 273f
000002d0: f83c d93e e78a 613d 11c3 853c 1a4a bd3e
000002e0: f206 92be 45f3 cb3d 0ae4 14be bb0b 16be
000002f0: 66e9 103e 4fd8 f2ba 020d cfbc ec4b 173e
00000300: 9457 8e3b 95e6 753d 8288 13be 6a64 91bd
00000310: 03dd 9c3c 3dfe 0f3e 0cd9 a7bd ca6c 503e
00000320: 8775 8cbd 058b 3abe a2d4 13be 019c 823d
00000330: a244 433e c6a4 4c3e dbce 07bc cbcf a0be
00000340: e1e2 3bbb 3d9d a4bd 266e 0f3e 853e fdbc
00000350: deb4 e0be aa2c 05be 7102 263e f34d 38bc
00000360: 9c09 083d 905b 363e bb08 ccbe 7d83 d43d
00000370: 79fa 4abe 07ec 91bd 8e7a 5e3e 79db c03d
00000380: 5f23 4cbe 0d32 7d3f 14c6 533e d927 8e3d
00000390: 072a 5d3d 6ba5 a03e 8164 a83e 09b6 ae3e
000003a0: d535 783e 94db 313e 6e33 1ebd fa3f 553e
000003b0: 98b7 253e e3df 0d3f 2637 c73e 4319 113d
000003c0: 805b 57be f101 5a3e 6cbd 93bd 0ac3 433e
000003d0: b0aa 51be 0dbe d53d 0146 06bd 45a3 d33e
000003e0: fb13 bf3d 9955 853e 39b6 24be d6a2 d2bc
000003f0: 6734 873d 6146 ea3e 4903 153f 39cf d03d
0.30172348 0.35477275 -0.2729586 0.18495603 0.1359543 -0.03467013 0.5185465 0.13706754
0.11755219 0.4459045 0.09653175 0.23027936 -0.16909711 -0.24971847 -0.16837247 0.1946643
0.043693535 0.18643805 0.45000073 0.18180965 -0.10607337 -0.20195344 -0.4340161 0.27982947
-0.14971124 0.5284976 0.12944289 -0.18569937 -0.030013341 0.448052 0.39227352 0.09532561
0.1456383 0.010758734 0.059874095 0.10485284 0.1762543 0.3262436 0.2544085 0.07737238
0.1366885 -0.037329014 0.15093866 0.24499878 0.38148788 -0.13115433 -0.11451432 0.23100844
0.012123707 -0.7118498 -0.067726955 -0.74341536 -0.313136 0.24311681 -0.27891552 0.025985623
-0.20780857 -0.03859578 0.18034606 -0.034576796 -0.071565196 0.1510196 0.39088643 0.02588512
-0.011495928 -0.10102771 0.19247602 -0.054093134 -0.14320812 -0.3387859 -0.0581078 -0.0185357
-0.26008624 0.43576744 -0.12640984 0.021849057 0.0053133555 -0.09940181 0.31904018 0.04912418
0.10792977 0.14318536 -0.071456425 -0.009070818 0.030210158 0.0657688 -0.2074831 0.14118512
0.08656408 -0.028937453 0.4411489 -0.07182272 0.017872414 0.018168736 0.06948227 -0.12755758
-0.016510502 -0.7360262 0.121088535 0.036967676 0.116866924 0.159718 -0.13060258 0.18324341
-0.058382805 -0.08516905 0.2557387 0.3691859 0.1338302 -0.26283598 -0.26806635 0.043208
0.13385525 0.1798159 0.055147476 0.17494956 -0.26303068 -0.33966714 0.006516528 0.022628509
0.10283658 -0.21516661 0.30161285 0.22006914 -0.02093888 -0.093154624 -0.43149132 0.31471202
-0.3223458 -0.18864374 0.14213464 0.18588886 -0.23965992 -0.40021345 -0.56152564 0.15656734
0.014674184 -0.51770085 -0.0535253 -0.033650134 0.16782749 0.10242753 0.10075391 -0.45106077
-0.093283005 0.14445938 -0.23184524 -0.1564235 0.051635537 -0.035960715 0.4652302 0.07687008
0.2191075 -0.062290266 -0.30081043 0.35451382 -0.24910943 -0.20231603 0.015693454 -0.35216773
0.24073179 0.119462624 0.12824473 0.114290565 0.21566898 -0.08916318 -0.056565925 0.29436454
0.2415778 0.077100046 0.0811195 0.2922102 -0.28463507 -0.2505436 0.3789572 -0.17305854
0.048776597 0.7946897 0.08405826 0.6550649 0.42429328 0.05506411 0.016328366 0.36970598
-0.28520924 0.09958509 -0.14540115 -0.14652912 0.14151534 -0.00185276 -0.025274757 0.14775056
0.004343936 0.060034353 -0.14407542 -0.070992306 0.019148355 0.14061828 -0.08195695 0.20354
-0.06858354 -0.18217094 -0.14436582 0.06377412 0.1906915 0.19984731 -0.008289064 -0.31408533
-0.0028669166 -0.08037803 0.14006862 -0.0309136 -0.4388799 -0.13005319 0.16211869 -0.011249053
0.03321229 0.17808366 -0.3985041 0.10376642 -0.1982211 -0.07125097 0.21726438 0.09416861
-0.19935368 0.98904496 0.2068103 0.06941194 0.05399516 0.31376204 0.32889178 0.34123257
0.24239285 0.17368919 -0.038623266 0.20825186 0.16183317 0.5541975 0.38909262 0.035424482
-0.21030998 0.21289803 -0.07213864 0.1911737 -0.20475268 0.1043664 -0.032781605 0.41335502
0.09329983 0.26041868 -0.16085137 -0.025712412 0.06601792 0.4575682 0.5820814 0.101957746

bias f4 [128]
00000000: 70cc e33e 89c5 83be c9f1 0abe 3791 78be
00000010: 89b3 b93e b082 9abe 9ff0 063f 2401 093d
00000020: b593 1fbe a6da 593d 8261 103f 18a4 6abd
00000030: 6713 ed3e 4ca9 d13e 3b4c e23e 1654 6f3d
00000040: f074 0f3f cd62 ccbd ea65 5b3e 007c 5ebe
00000050: d588 22be 7b59 23be 723c c53e f229 283e
00000060: e1c8 55be b0a5 b5bd 867c f23e 8029 e5bd
00000070: db65 b2be 9b8a b13e dff7 c53d 5b01 62bc
00000080: f25e 0ebe 67b0 1e3d c7ee b0bb 8a5e a53e
00000090: 6041 c63c 20cf c7be 054c 963c 5c7c bb3e
000000a0: 85a0 bfbd 696b cd3e 8a7d b63e faa7 47be
000000b0: ee09 b3bd 0175 213f 404e 2cbe fefe 20be
000000c0: 3a89 583d 455a 273e 77b8 23be 01c9 463e
000000d0: f72f b6bd b33c 6bbd 30be 243d 3b1d f4ba
000000e0: b051 f5bb 69b0 15be 800e d13e 059c 933d
000000f0: 7ba5 d53e def9 5a3e 3cfc 033e f642 ad3d
00000100: 83f7 aa3e 1f36 8fbd 9115 ce3e 227b 293d
00000110: 90b5 a73e 50dc e13e 582d 273e 2ff0 19be
00000120: 9580 623e ac53 dc3d 90f6 60be 0846 2a3e
00000130: ab2c 023d 23b7 f63e 95f6 e23e 87c0 043f
00000140: fe69 193e a20a d23e 7e9e 723e cb2b 0d3f
00000150: d90d c1bb c9b8 2f3e 3427 fc3c 0e13 c13d
00000160: 62d2 6b3e 2c68 2cbd d58e 31be 4195 8f3d
00000170: 4709 ccbe d9eb 743d 81f1 eb3e 7f57 8f3e
00000180: eaae 1ebe 79ca a83d 4d36 a53e c49f 21be
00000190: bd6a a7be 4376 7f3e 4167 60be 3988 8b3e
000001a0: 27cc debd 795d 1a3e 71b8 7c3e b6a7 d03c
000001b0: b2f9 043e a668 5fbd 6e63 b73e 787b 55bd
000001c0: 1ad2 d33c b1be fe3d 5267 a33d cc53 08be
000001d0: 324e e33d 7e1a a43d a025 a23e 4fea 13be
000001e0: f923 a73e f609 11be 715d 813e eab2 05be
000001f0: 891f 7bbd 20d9 49bc 062c 953e c122 213e
0.4449191 -0.25736645 -0.13568796 -0.24274145 0.36269787 -0.30177832 0.5271091 0.033448353
-0.1558369 0.053187035 0.56398785 -0.0572854 0.46303865 0.40949476 0.44198784 0.0584298
0.5603781 -0.09979782 0.21425596 -0.2172699 -0.1587251 -0.15952103 0.3852268 0.16422251
-0.2087741 -0.08869493 0.4736063 -0.11189556 -0.34843335 0.3467606 0.09666418 -0.0137942685
-0.13903406 0.03874245 -0.005399558 0.3229869 0.024201095 -0.3902521 0.018346796 0.36618316
-0.093567885 0.4012101 0.35642654 -0.19497672 -0.08742128 0.6306916 -0.16826725 -0.15722272
0.052865244 0.16343029 -0.15988337 0.19412614 -0.08895867 -0.057430934 0.04022044 -0.0018624434
-0.0074865445 -0.14618076 0.40831375 0.07207493 0.41727814 0.2138438 0.12889189 0.084600374
0.3339196 -0.06992745 0.4025083 0.041377194 0.3275571 0.44113398 0.16325891 -0.15033029
0.22119363 0.10758147 -0.21969056 0.16628277 0.03178088 0.48186597 0.44328752 0.51856273
0.14981839 0.41023737 0.23693272 0.5514495 -0.0058915433 0.17160334 0.030780412 0.094274625
0.23029473 -0.042091534 -0.17339642 0.0701089 -0.39850828 0.059795234 0.4608269 0.27996442
-0.15496412 0.082417436 0.3226799 -0.15783602 -0.32698622 0.24947457 -0.21914388 0.27252367
-0.10878783 0.1507472 0.24679734 0.025470596 0.12985876 -0.05454316 0.35818046 -0.052119702
0.02585702 0.12438715 0.07978691 -0.13313216 0.11098899 0.080128655 0.3166933 -0.1444485
0.32644632 -0.14163956 0.25266603 -0.13056532 -0.06130937 -0.012319833 0.2913515 0.15735914

weight f4 [4, 128]
00000000: 0b37 0a3e d548 d9be dba2 61bf 7b8e 9bbf
00000010: 211b 903e b9e4 45bf 005f db3d 9a50 bb3e
00000020: d6de 5abf 675e a1bf 6715 013f 2105 b3bf
00000030: 2d38 7a3e 7558 3c3e a193 afbc c5d8 a83f
00000040: 034b 923e ebf2 acbe c74c c1be b177 11bf
00000050: 8d27 f2be dc45 003f fda2 253e 4d3b 803e
00000060: da12 50bf ef43 1dc0 6d72 583d da06 7f3d
00000070: 6d7a 88bf c74e a33e ad6b b63f 0941 4ebf
00000080: e937 95bf 2c13 353f 22bd 37bf 1155 0d3e
00000090: de7e 1cc0 6c95 dcbe d8b6 ecbe 7e95 24bf
000000a0: 2dc4 5d3f d6a5 4d3e 2ca6 9b3e 039d a8bf
000000b0: 0601 ddbf b049 253f 71aa 6fbf 464a 163f
000000c0: 396c 843e 39b8 06bd e0e7 0cbf 3e08 7d3d
000000d0: a065 8c3e 47a5 32bf 8b4d 63bf 9186 35c0
000000e0: 73cc 82bf ab72 a53e b15c 053d 0397 153f
000000f0: 47a7 523e b19b 323f c9d0 d93e 5a08 9bbe
00000100: 6e0f 003f 4876 90bc 106f d33e f45d aabf
00000110: 2f3e 81bd bbe0 14bd d188 b83d 957f afbf
00000120: f06b b93e d6ee 133e b701 d3be deae 443e
00000130: d335 433f 9b80 9e3e 1d81 023c c892 123e
00000140: 3779 0ebf 0fff ad3e 48b6 c3be 271c 873e
00000150: 2c04 f3bf b533 a6be d12f 80bf 5074 09c0
00000160: d026 c3be f506 e13e 6f2a dcbf 7fdd 76bf
00000170: b512 93be 2ef2 503f cbb9 953e 4d5f 213f
00000180: 1b59 bbbe 79a7 a1be 92f3 873e 7649 5fbf
00000190: 7dd5 9ebf 53f6 603f 9d24 dfbe 99ca 963f
000001a0: 2097 b6bf 40f4 873f c8ab 913e 0eab 5ebf
000001b0: c232 1dbe 99d0 c6bf fda1 643e af73 803e
000001c0: 24f3 0d3f c4c2 cfbb 362a d8bf 3032 bfbf
000001d0: f68a b5bc 3df0 a3bf 78ed af3e 3059 8ebe
000001e0: 8707 ea3d f5fd 753f 285b d03e 7ebe 3e3f
000001f0: fb5c 533f 2b46 7dbf 539d 813e 2ac5 b13e
00000200: c8bf 8b3d d264 41bf f69f 5a3f 203d 17bf
00000210: 879c 0c3d 0292 7dbf f07a 8b3e 7bf8 c63e
00000220: bf16 71bf c182 683f 632a af3e de45 c3bf
00000230: 1ae3 b53e b2f0 a43e 8fc9 feba 3dcb 873f
00000240: f2f2 013f 65ba e9bf 97fc 1cbe 5e2c acbf
00000250: 6f50 02c0 6f19 aebe 2a1b d43e 7c61 5e3f
00000260: 44b6 1e3e aa31 22bf 561a ac3e 036c fbbf
00000270: 62fb bbbe a6f2 913e 99fa c2bf 53a5 953f
00000280: 13fd 8ebf 10dd 8fbf 2b3c 09bd 8650 a83e
00000290: fa06 04bf 3ada 93be dd91 133f 7d9a d53e
000002a0: 0506 36bf ddd1 473e 879a a1bc 7b98 14bf
000002b0: b95d 353f a0d0 e53e 6632 69be b929 9bbf
000002c0: c035 ba3e e14e 493f a9c6 b6bc 69c5 19bf
000002d0: 95f8 babe 3f4a 02c0 8816 85bf b2e6 54bf
000002e0: 7823 f1be 01c6 71bf 7951 b7bd 30cb 753f
000002f0: b6da 96be 14de cdbf e859 fc3e 89fb 813e
00000300: ef96 3f3f 40bc 8fbe 8a58 eb3e 596e 5b3f
00000310: cfd1 933e 1a38 c33c d02e 87bf cab7 adbf
00000320: 0ab9 33be fe56 703f 8600 e9be c199 98bc
00000330: ff4f 823f 7c08 f33e 3f6e 0c3f 9e77 7c3e
00000340: 8c82 443f ee03 bf3e 03bb 823d d6ce de3d
00000350: cf2e afbf d3f1 b3bf e60b c5bf d74c e93e
00000360: 53e1 893f 13a3 adbf 06e1 f5be ae3c 183f
00000370: b192 c2be 7a58 2f3f 4fc4 b3be 854f 2ec0
00000380: e6c2 eebf 0656 7c3f fdbc 11be acf0 1abe
00000390: 006e a73f 7f93 973f e7fc 47bf 42e9 793f
000003a0: 7175 5dbf 5441 823f b0b7 0ebd 77de 1dbf
000003b0: 654b 863e 6939 ebbe dfbc f4bd 05a1 86be
000003c0: 241b bc3e 9f50 973d 01d1 123f 5101 b9bf
000003d0: efc5 50bf e1ab 283f 6fb9 473f 37ea 5fbf
000003e0: 894f 923e b914 e1bf c7e5 723f 18ae 51bf
000003f0: 2343 b3bf 94f5 03c0 f460 8f3e dd27 01bf
0.1349756 -0.4243838 -0.8813912 -1.2152857 0.28145698 -0.7730213 0.10711479 0.36584932
-0.8549627 -1.2606934 0.5042328 -1.398594 0.24435492 0.18393119 -0.0214327 1.3191153
0.28572854 -0.33779082 -0.3775389 -0.5682326 -0.472958 0.50106597 0.16175456 0.25045243
-0.81278765 -2.4572713 0.0528435 0.062262394 -1.0662361 0.3189604 1.425161 -0.80567986
-1.1657687 0.7073238 -0.7177297 0.13801982 -2.4452434 -0.4308275 -0.4623325 -0.64290607
0.86627465 0.20082793 0.30400217 -1.3172916 -1.7265937 0.64565563 -0.9361945 0.5870708
0.25863817 -0.032890532 -0.55041313 0.06177544 0.27421284 -0.69783443 -0.88790196 -2.8363383
-1.0218643 0.32314047 0.0325591 0.5843355 0.20571624 0.69768816 0.42542103 -0.3027981
0.50023544 -0.017634526 0.4129567 -1.3309922 -0.06310689 -0.036347132 0.09010471 -1.371081
0.36215162 0.14446577 -0.41212246 0.19207332 0.76254004 0.30957493 0.007965353 0.14313805
-0.5565371 0.33983657 -0.38225007 0.26388666 -1.8985648 -0.32461324 -1.0014592 -2.1477242
-0.3811555 0.4395062 -1.720045 -0.96431726 -0.2872521 0.81619537 0.2924331 0.6303604
-0.3659142 -0.31573084 0.26553017 -0.8722147 -1.2408901 0.8787586 -0.4358262 1.1780578
-1.426487 1.0621414 0.2845137 -0.8697976 -0.15351394 -1.5532409 0.22327419 0.2508826
0.5544913 -0.0063403565 -1.6887882 -1.4937191 -0.022160988 -1.280769 0.34360862 -0.2780242
0.11427217 0.9609063 0.40694547 0.7450942 0.8256375 -0.9893519 0.2531534 0.34720737
0.06823689 -0.75544465 0.8540033 -0.59077644 0.034328964 -0.99050915 0.2724223 0.3886145
-0.9417533 0.90824515 0.34212026 -1.5255697 0.35524827 0.32214886 -0.0019438731 1.0608898
0.5076133 -1.8260008 -0.1533073 -1.345104 -2.0361593 -0.3400378 0.41426975 0.868675
0.15499216 -0.6335703 0.33613843 -1.9642338 -0.36715227 0.2850544 -1.5232726 1.1691078
-1.1170982 -1.1239338 -0.033504646 0.32873935 -0.51573145 -0.2887743 0.57644445 0.41719428
-0.71102935 0.1951365 -0.019727005 -0.58045167 0.70846134 0.4488573 -0.22773132 -1.2122108
0.36369133 0.78635985 -0.022311525 -0.6006685 -0.36517778 -2.0357816 -1.0397501 -0.83164513
-0.47097373 -0.94442755 -0.089510866 0.96013165 -0.29463738 -1.6083398 0.49287343 0.2538722
0.7483968 -0.2807331 0.45965987 0.8571525 0.2887101 0.023830462 -1.0561161 -1.3571713
-0.17551056 0.9388274 -0.45508212 -0.018628003 1.0180663 0.4746741 0.5485572 0.24655005
0.767617 0.37307686 0.06383326 0.108792946 -1.368616 -1.4058174 -1.5394256 0.45566437
1.0771888 -1.3565391 -0.48023242 0.5946759 -0.38002542 0.6849438 -0.3511071 -2.7236035
-1.8653228 0.9856876 -0.1423225 -0.15130872 1.3080444 1.1841887 -0.78120273 0.9762155
-0.86507326 1.0176187 -0.034843147 -0.6166758 0.26229396 -0.45942238 -0.11950087 -0.26294723
0.36739457 0.07388424 0.57350165 -1.4453527 -0.8155202 0.65887266 0.78017324 -0.8746676
0.28576306 -1.7584449 0.9488186 -0.8190627 -1.4004864 -2.061864 0.28003657 -0.5045145

bias f4 [4]
00000000: 66ca a03e c68a 853e 64ae 803e 5bd2 9f3e
0.31404418 0.26082438 0.2513305 0.31215176
