trained_agent_Snake.pt (torch, 152272 bytes, 8 tensors)

weight f4 [128, 25]
000000 88 5f fb be e2 ff a5 be 1a 84 d5 be 68 2d 11 3e
       -0.49096322 -0.32421786 -0.41702348 0.14177477
000010 fa e0 85 bf f8 e6 49 be c7 07 ee be 2c 53 f3 3d
       -1.0459282 -0.19717014 -0.4649031 0.11881098
000020 82 3e 5e bf e7 1d 30 bf 10 26 a2 bd 49 b8 9d 3e
       -0.8681413 -0.6879563 -0.07917416 0.3080466
000030 4c d0 8c bd ba 04 21 be bb 4b 2b bf ee df 48 3e
       -0.06875667 -0.1572446 -0.6691243 0.19616672
000040 de ce 1d bf 9c 12 85 bf c3 b7 c8 be c5 b4 0e 3e
       -0.6164378 -1.0396304 -0.392027 0.13936146
000050 3a 1d db bd a6 f1 d4 be d7 b2 16 3e b8 f5 96 3e
       -0.10698934 -0.41590613 0.1471666 0.29484344
000060 84 14 0f bf da 87 87 3e dd 1e b0 3e 11 0e 3b 3e
       -0.5589068 0.26470834 0.34398547 0.18267085
000070 3e bc 11 3c 5c ec 52 3e 3c 36 b4 3e 8a cf af 3e
       0.008894978 0.20597976 0.35197628 0.34338027
000080 9f 01 8c 3c 78 8a 05 bf d6 12 15 3e 12 f1 3f be
       0.017090617 -0.5216441 0.14557967 -0.18744305
000090 6e 1c f7 be ee 93 a7 be c4 05 01 c0 4b c0 3c 3e
       -0.48263878 -0.3273005 -2.015977 0.18432729
0000a0 b2 62 6b 3e 3b b5 61 3e 35 5e 66 3e ef b2 70 bf
       0.22986868 0.2204179 0.22496875 -0.9402303
0000b0 7d e1 d4 3e 7b c4 d0 3d 69 61 6b bd 11 9c d1 be
       0.41578284 0.10193726 -0.057465944 -0.40939382
0000c0 c6 37 40 bf db 08 3d 3e 9f 28 19 be 19 97 ed 3c
       -0.75085104 0.1846041 -0.14956902 0.029002713
0000d0 b0 04 1d 3e 66 8a 98 bf fd e6 cd 3e d5 e4 16 be
       0.1533382 -1.1917236 0.40215293 -0.1473573
0000e0 31 ba 8c 3c e5 f3 9a bd 60 bf 5b 3e 58 5a 87 be
       0.017178627 -0.075660504 0.21459723 -0.26436114
0000f0 23 74 23 3e 34 c7 5e 3e 57 f7 c8 3d ea c2 bf bb
       0.15962271 0.21755677 0.09812801 -0.005852093
000100 49 cb d9 3e 01 f3 25 3d 10 47 1c 3e ae 46 16 3f
       0.42537907 0.04051495 0.15261483 0.587016
000110 df 97 b7 3d 7b fa b2 bd ca a0 83 be a1 07 2e 3e
       0.08964514 -0.087391816 -0.2570861 0.16995098
000120 b6 3b 72 3f a7 16 4d 3f 5f ec 48 3e 22 2b 79 bf
       0.9462236 0.8011269 0.19621418 -0.9733144
000130 8b 7e dd bc b9 77 f0 be e0 cb 5e be 22 e1 04 3e
       -0.02703788 -0.4696634 -0.2175746 0.12976506
000140 50 a9 0e be 77 b8 42 3c f2 4d be 3e a3 a6 0e 3f
       -0.13931775 0.0118848 0.37168843 0.5572302
000150 ba f4 ce bf f7 dc 5d 3e 63 e5 f3 3c bf f8 18 bb
       -1.6168435 0.21666323 0.029772466 -0.0023341624
000160 81 c3 27 3e 91 8f 96 3d 2a 97 f6 be 36 9a d4 3e
       0.16383173 0.07351602 -0.48162204 0.41523904
000170 21 ac 31 3e 72 36 0c be ee 6a dd be 81 7c 15 bf
       0.17350818 -0.13692644 -0.43245643 -0.583931
000180 f9 d4 17 bf 7b 5d 2c 3e d4 53 19 bf 42 d3 c1 3e
       -0.59309345 0.16832535 -0.59893537 0.3785649
000190 7e 54 8b be 8b 65 20 3e f5 7f 29 3e 0b 6d f5 3d
       -0.272129 0.15663736 0.16552718 0.11983689
0001a0 9b 0f d5 bd 42 3b 99 3e b6 86 09 3f 28 da e1 be
       -0.10403367 0.29928023 0.5372118 -0.44111753
0001b0 96 bf d0 3e ad ea fe bb 15 50 e5 bd db 1d d0 3d
       0.40771168 -0.0077794404 -0.11196915 0.101619445
0001c0 fe be ef bd dc 68 8f 3e ee c4 24 3f f2 5f c8 3d
       -0.11706351 0.2800969 0.6436299 0.09783925
0001d0 fd f4 96 3e a8 53 aa be 8f 9b bf 3d 3f f6 1c 3f
       0.29483786 -0.3326695 0.09355842 0.6131324
0001e0 eb 7c 11 bf 4b 9a 1b 3e 4d 9a 74 bd 45 c5 21 3c
       -0.56831235 0.15195577 -0.059717465 0.009873693
0001f0 fe 93 03 bf c8 0f 8d be a7 08 5b be e5 96 d1 3e
       -0.51397693 -0.27551103 -0.2139002 0.40935436
000200 32 6b 2a 3f 91 1f 71 3d 62 84 16 be 97 f0 84 bd
       0.6656982 0.058867995 -0.14698938 -0.06491201
000210 58 cb 1e 3e 32 81 a0 3e 22 81 ce be bf 62 b2 bd
       0.15507257 0.31348568 -0.40332896 -0.087102406
000220 e8 5f 53 bd 2e 53 f4 be 18 13 78 3d c3 b1 2c be
       -0.051605135 -0.4771971 0.060565084 -0.16864686
000230 ee 95 e6 be 22 01 b7 3e c2 48 49 3d 81 4d e4 3e
       -0.45036262 0.35743052 0.049141653 0.4459038
000240 24 70 82 3e 95 ab 2d 3d c4 c3 6a 3e f6 03 26 be
       0.25476182 0.04239996 0.22926241 -0.16212448
000250 d3 22 ba 3d 90 79 24 3f e7 94 a2 be aa cc 05 be
       0.090886734 0.6424799 -0.31754228 -0.13066354
000260 f9 d4 f1 3e 03 97 a3 be 5d de 41 bf 26 72 89 be
       0.47232798 -0.3195115 -0.75729924 -0.268449
000270 fb 25 3a bd ed a1 3a be 7f 9e b4 3d 13 dc 29 be
       -0.045446377 -0.18225832 0.08819293 -0.16587858
000280 81 50 55 bd c6 e9 28 be 24 2a a0 be 37 4a 8e be
       -0.052078728 -0.16495427 -0.3128215 -0.27790996
000290 ce 1c 71 be 25 a1 76 3d f6 5a 2f 3d 1f 9c 28 bf
       -0.23546144 0.060212273 0.042811356 -0.6586322
0002a0 7c 7d 5e 3e 48 9d 13 be 28 cf a7 be aa 98 df be
       0.21727556 -0.14415467 -0.32775235 -0.4367116
0002b0 41 e9 e2 be ab b9 50 bc 0b d3 05 bf 10 af 1a bc
       -0.44318584 -0.012739579 -0.5227515 -0.009441152
0002c0 f8 71 57 3e 07 0d 5f 3d 6d e1 21 bd 84 1e b2 be
       0.2103957 0.054455783 -0.039521623 -0.34788907
0002d0 4c 90 de 3e 27 d6 ac 3c 5b b0 ae 3e d4 23 2d be
       0.43469465 0.02109821 0.34118924 -0.16908199
0002e0 04 2f d7 3e a8 6b fa bd fb d3 a9 be 32 bb 41 3e
       0.42028058 -0.12227565 -0.3316954 0.18919066
0002f0 bf e8 04 3e 18 bd 36 3f bf e1 aa 3e f7 11 c3 3e
       0.1297941 0.71382284 0.33375356 0.38099644
000300 bf 6c bb bc 82 68 7a be f3 3a 69 3e 24 86 95 3e
       -0.022879003 -0.24453929 0.22776394 0.29203904
000310 92 0d 3b bd 35 c3 d0 3f 9f c2 13 3e 0a 00 02 3f
       -0.04566724 1.6309572 0.14429711 0.5078131
000320 8b 33 bf be c6 fe 9d be 3a cd 08 bf df 39 01 3e
       -0.37344012 -0.3085844 -0.5343815 0.12619732
000330 72 93 26 bf e7 af 15 bf 19 65 68 bf 17 ac 61 be
       -0.65068734 -0.5847153 -0.9077926 -0.22038303
000340 1c 68 72 3e 67 8a 3c bf bf 5d 58 bd 46 be 80 3e
       0.23672527 -0.73648685 -0.05282378 0.25145167
000350 06 e6 9f be ac f5 e7 bd 57 a8 ba 3e f7 d6 d2 be
       -0.3123018 -0.11326155 0.36456558 -0.4117963
000360 38 b2 f4 be 09 c4 f9 3d 1e 91 63 bc f9 66 ad be
       -0.4779222 0.12195594 -0.013889579 -0.33867624
000370 7f d9 b3 be da a2 a9 3d b9 2b 8b 3e 56 4a 10 bc
       -0.35126874 0.082830146 0.27181795 -0.008806786
000380 7b c8 ab be 50 f5 01 3f 88 b1 b5 3e bf 0b a9 3d
       -0.33551392 0.5076494 0.35487008 0.082541935
000390 2f 69 36 3e 1a b6 5d 3e 79 55 74 3a fa 92 9c 3e
       0.17813562 0.21651497 0.0009320598 0.30580884
0003a0 8d bb d0 3d 33 30 d2 3d 06 8e 93 3e e6 4e 0a be
       0.101920225 0.102630995 0.28819293 -0.1350666
0003b0 4f 80 04 be 5f b9 aa 3e 15 15 79 3d c1 58 bd be
       -0.12939571 0.33344552 0.06081112 -0.36981776
0003c0 5a 89 22 3d 75 45 de 3e e9 f0 11 3f 3c 07 40 3e
       0.03968177 0.43412367 0.57008225 0.1875276
0003d0 0f fe 62 3e 16 2c 8d 3d f6 4e bb 3e 3e 8b 1a bf
       0.22167228 0.06893174 0.3658368 -0.60368717
0003e0 24 2b 61 3e 9b 59 34 3e 57 6c 9d 3e 73 57 2c 3e
       0.21989113 0.17612307 0.3074672 0.16830234
0003f0 74 b1 52 3f 2c 83 b6 3e d5 cb c2 be b7 e6 65 be
       0.8230202 0.3564695 -0.38046136 -0.22451292

bias f4 [128]
000000 19 01 42 be 2c 28 3d 3f ca ff 06 3f 36 d5 98 3e
       -0.18945731 0.7388942 0.52734053 0.29850167
000010 8d e3 a5 bd 6d 4d 86 3e a9 7d 9c bd 01 af 83 be
       -0.081000425 0.26230946 -0.07641155 -0.25719455
000020 85 7b ec 3d 41 74 29 bd e8 c6 ca 3d 44 42 f4 3d
       0.11546997 -0.041370634 0.099012196 0.11926702
000030 4d 26 80 be 80 b0 59 be cb 8e a0 bd 5c c9 8d 3e
       -0.2502922 -0.21258736 -0.078397356 0.27692688
000040 62 7a bf 3e 81 c1 24 3a b1 0b c8 3e ff 8b 8d 3e
       0.37398058 0.0006284938 0.3907142 0.2764587
000050 3d a9 6c 3e 0d e4 f0 3d 78 e9 8f 3e ca 25 f3 3e
       0.23111434 0.11762247 0.2810781 0.47489768
000060 fb d4 e6 3d aa 4c 05 bf ce e3 2c 3f a2 b6 c3 3e
       0.112710916 -0.52070105 0.675351 0.38225275
000070 3f 39 39 3f 92 ff 19 3e 48 3c 35 be 0d 09 27 3e
       0.72352976 0.15038899 -0.17698777 0.16312046
000080 e1 cc a4 bd 1d 2f 6d 3e 79 e3 ec be d0 57 42 bd
       -0.0804689 0.23162504 -0.46267298 -0.047447026
000090 27 5a 92 bd 6e 67 24 bd 0d 85 e3 3c 3a 8f 02 bf
       -0.071461014 -0.0401377 0.027773404 -0.50999796
0000a0 b7 12 06 be be b1 c4 be 8b 4a 12 3f c5 70 14 3f
       -0.13093077 -0.38416857 0.57144994 0.5798457
0000b0 ae 1e 19 3f 00 e9 eb 3e 45 7a 99 3e b8 b4 dc 3d
       0.5981244 0.46076202 0.29976097 0.10776657
0000c0 79 84 00 3e 01 b1 c8 be 1c f4 9b 3d ce 5d ba 3e
       0.12550534 -0.39197543 0.076149195 0.36399692
0000d0 17 c7 0f 3f 22 70 0c 3f 08 4b 25 3f 24 b1 15 3f
       0.5616316 0.548586 0.64567614 0.5847342
0000e0 77 b1 af 3e c8 fc bb 3a 1e 52 00 3d 62 c0 8a bd
       0.34315082 0.0014342302 0.031328313 -0.06774975
0000f0 eb 9f 8a 3d 49 a6 e3 be ac 10 1e 3e 70 83 fe 3d
       0.06768783 -0.44462803 0.15436047 0.124274135
000100 e2 68 80 3e b7 79 88 3e 0e 4e a7 3e cb 89 15 3e
       0.2508002 0.2665536 0.32676739 0.14603345
000110 dd 2b cd 3e 45 41 4c 3f 0c 87 19 bd 7f 7b c8 bd
       0.40072528 0.79787093 -0.037482306 -0.0978918
000120 cb 37 c8 3e 2f ba fd 3e ed a9 b4 be cf 53 8f 3e
       0.39105067 0.4955611 -0.35285893 0.27993628
000130 2c 35 18 3f 6a 48 95 be 5e 57 79 bd 5f 3d c5 bd
       0.59456134 -0.2915681 -0.060874335 -0.09630846
000140 9f c7 43 3c 69 08 8d bc 82 26 1a 3f 28 e4 10 3f
       0.011949449 -0.017215924 0.6021501 0.5659814
000150 46 d6 e5 3e 48 ff a2 3e b7 9c 2f bc ab 4a 52 be
       0.4489004 0.3183539 -0.010718516 -0.20536296
000160 5a 46 88 3f a7 dc 85 be df 98 7f 3e 19 d9 58 3f
       1.064647 -0.26144907 0.2496066 0.84706265
000170 1c b9 05 3f eb a0 90 3e c4 eb 22 3f 18 02 bb be
       0.5223558 0.2824777 0.63641 -0.36525035
000180 77 ea d6 be 36 c0 49 be db 1f b0 be a9 09 25 3f
       -0.41975757 -0.19702229 -0.34399304 0.64467865
000190 49 18 ad bd f8 b1 ab be 69 e7 e9 be 5d 41 f2 3d
       -0.08451898 -0.33534217 -0.45684364 0.11828873
0001a0 04 67 03 3f 1c 7f 47 3f 3f 1f ba 3e 8b 9b 2c 3f
       0.51329064 0.7792833 0.36351964 0.6742484
0001b0 80 3f 43 be d0 1a 2c 3f 76 b0 94 3e b3 1a 0d be
       -0.19067192 0.6722841 0.2904088 -0.13779716
0001c0 c7 fd 25 3e a3 ee 39 3f b2 9a e4 3d 11 65 d4 3e
       0.1621009 0.72629756 0.11162318 0.41483358
0001d0 9d b5 c8 be 31 53 f9 3e 74 19 2b 3f e6 e1 5b 3e
       -0.3920106 0.48696283 0.66835713 0.21472892
0001e0 e9 86 96 bd 85 4c 86 3d 19 08 9d 3e 3f c8 fc bd
       -0.07349951 0.06557564 0.3067024 -0.123428814
0001f0 a7 de da 3e c9 54 ce 3b f4 13 99 3e 61 77 c6 3e
       0.42747995 0.0062967283 0.29898036 0.38762954

weight f4 [128, 128]
000000 ca ea af 3e 51 68 9f bd ce b4 b9 bd a2 4f 79 be
       0.34358817 -0.07783569 -0.09067689 -0.24346784
000010 ec 96 1d 3d 69 5a 44 be 42 30 9f 3d 59 15 27 3e
       0.03847401 -0.19175114 0.07772876 0.16316737
000020 e5 36 eb bc d1 04 1a 3e 8f 8c b9 3d 22 04 b9 3e
       -0.0287127 0.150409 0.090600125 0.36135966
000030 df 16 82 be 2e ea 38 3e a5 53 97 3e 3c de 3a 3d
       -0.25408074 0.18058082 0.29556003 0.045622095
000040 12 b6 b7 be eb bc 9f be a9 34 10 3d 68 ca b1 3d
       -0.35881096 -0.3119882 0.03520647 0.08681184
000050 0e 03 c1 be f0 4e fd bd 5e 85 00 bd d2 e6 8b be
       -0.37697643 -0.12368572 -0.03137719 -0.2732454
000060 b5 34 6f be e3 34 23 be 84 fd 0d bf 91 e2 5b be
       -0.2335995 -0.15938143 -0.5546496 -0.21473147
000070 55 fd d1 be 93 49 2c bd 33 93 eb 3e a9 2e 30 be
       -0.4101359 -0.042062353 0.46010742 -0.172053
000080 c8 2c a3 3d 54 55 26 3e 33 e3 b5 bc 33 01 c2 3e
       0.07967526 0.16243488 -0.022203064 0.3789154
000090 8d b0 02 3c c6 fd 20 bf a2 a5 5e 3e 42 c5 b5 3e
       0.007976663 -0.6288723 0.21742871 0.35502058
0000a0 e7 72 6c 3d ee 4a e1 3b 26 44 54 be 3e c6 08 3e
       0.057726767 0.0068753874 -0.20729122 0.13356873
0000b0 e8 e0 99 be 6d d1 7c 3d 5a 97 85 be 7e b5 cf 3d
       -0.30054402 0.06172316 -0.26092035 0.10142039
0000c0 53 3e c2 3e eb 01 61 be 2d a7 1e bf 1f b1 38 be
       0.37938175 -0.21973388 -0.6197384 -0.18036316
0000d0 33 4d 62 3e 4a ed ac 3d 8f ef 5b 3e a0 6e 9e be
       0.22099762 0.08443697 0.21478103 -0.30943775
0000e0 48 aa 19 bf 4a d3 11 bf 5a 6e e5 bd 3a f9 4b 3d
       -0.60025454 -0.56963027 -0.112026885 0.049798228
0000f0 70 60 be bd 6f e9 d9 3d 37 8b 71 bc d2 13 8a 3c
       -0.09295738 0.10640227 -0.014742664 0.016855154
000100 a5 8f b8 3e fd 93 52 3d d5 89 b7 3e 31 af 71 3e
       0.36047092 0.051410664 0.35847345 0.23601986
000110 84 cc 1b be 02 86 c2 bd ba 3b 39 bf aa 24 4e be
       -0.15214735 -0.09498216 -0.7235676 -0.20131174
000120 c6 7f 8d be 35 70 83 bd 19 cb 8d be 9c aa f9 be
       -0.27636546 -0.06417886 -0.27694014 -0.48762977
000130 55 81 ff 3d b5 89 64 3d 08 30 ea 3d 7e 0d a5 ba
       0.1247584 0.05579539 0.114349425 -0.0012592522
000140 7b cd a8 3d a5 f6 96 3e 0a ad 41 3e ee 8b 53 be
       0.08242317 0.2948505 0.18913665 -0.20658848
000150 b6 14 0c be 44 92 7d bd 1e 7a 29 bf d3 64 84 bc
       -0.13679776 -0.061907068 -0.6620196 -0.016161358
000160 98 2b c2 be 05 fe 2e bf d5 45 df bd 93 86 05 3e
       -0.37923884 -0.68356353 -0.10901991 0.13039617
000170 ab ff a5 be 9b 86 99 be 6d 96 91 3c ee 4f 63 3e
       -0.32421622 -0.29985508 0.017771924 0.2219846
000180 be 31 af 3e 7f ac 11 be 37 3b 2e be 7a a2 ff 3c
       0.34217638 -0.14225958 -0.17014776 0.031205405
000190 f5 20 93 3a 7b 37 ac bd 08 56 0a 3d b6 ec 76 be
       0.0011225032 -0.084090196 0.033773452 -0.24113736
0001a0 8f 3c 90 be 78 74 87 bd 7c 58 a0 be 26 32 d5 be
       -0.28171203 -0.066140115 -0.31317508 -0.41639823
0001b0 58 23 3b 3e b4 cb d8 3e 9f 3b 8f bc c2 f4 51 3d
       0.18275201 0.42342913 -0.017484484 0.05125881
0001c0 e5 54 5f 3e 20 34 b4 bd f1 f7 a5 be 29 b1 0d bf
       0.21809728 -0.087990046 -0.32415727 -0.5534845
0001d0 e6 7b 48 3e 58 7b d8 be e8 39 eb 3c cd a9 03 bf
       0.19578514 -0.42281604 0.028714135 -0.5143097
0001e0 f4 60 93 3c 26 f7 12 3e 1f e9 a0 be d6 e2 87 bd
       0.017990567 0.14352092 -0.31427857 -0.066350624
0001f0 01 a0 18 3c a1 5d ae 3e 27 f5 86 bf 89 3a 79 be
       0.009315492 0.34055808 -1.0543565 -0.24338736
000200 70 a3 0a bf 49 79 95 be 36 59 0c bf 45 6c fa be
       -0.54155636 -0.29194096 -0.54823625 -0.48910728
000210 c4 a0 5f 3d e6 c2 62 3e 24 1e b9 be 52 33 2d bd
       0.054596677 0.2214466 -0.36155808 -0.04228527
000220 c7 3d 46 be 57 b3 0f 3e a3 99 69 3e b5 08 82 3e
       -0.19359504 0.14033256 0.22812514 0.25397268
000230 1c 8c d0 3e 6a 66 9c 3d 4a 46 98 bc b3 8c 26 be
       0.40731895 0.076367214 -0.018588204 -0.1626461
000240 60 59 4a be c5 55 2d be 95 a9 94 be eb 4b 58 be
       -0.19760656 -0.1692725 -0.2903563 -0.2112271
000250 63 58 9c 3e 3c d5 d1 bd 89 7f 69 be 6b 83 93 bd
       0.30536184 -0.10245749 -0.22802557 -0.072028
000260 dd 84 5a 3e 70 60 c7 3e 91 a1 36 bf 7e de 3d 3e
       0.21339746 0.38940763 -0.7134028 0.18541905
000270 ae dd 85 3d 92 6e 7f 3e e8 98 4b 3e 30 90 c6 be
       0.06536423 0.24944523 0.19882548 -0.3878188
000280 49 44 95 bc e6 cc 79 be 50 f2 fb 3d 3f 4b 7a be
       -0.018221037 -0.24394569 0.12302077 -0.24442767
000290 19 a3 19 be 58 e9 a3 3e 8f 71 3b 3f f1 6a 79 3e
       -0.15003623 0.32013965 0.7322015 0.24357201
0002a0 ec 46 0f bd 0c 49 25 3e 21 d9 48 3e 03 9a 85 3e
       -0.034979746 0.16141146 0.19614078 0.26094064
0002b0 45 ba b4 3e ea 40 50 bf 84 ef c7 3e 87 30 0a be
       0.35298362 -0.8134905 0.39049923 -0.13495074
0002c0 1a d0 6f 3f ea 53 55 3e 4a 71 5e 3f 19 42 c7 3c
       0.9367691 0.20832792 0.86891615 0.02432351
0002d0 4a ad 86 be cc a6 e9 be 72 8e ed be b2 ca 2d bf
       -0.26304084 -0.45635068 -0.4639774 -0.67887414
0002e0 4f 0f 03 bf 61 a9 ad be 20 78 4c be f3 42 7a bf
       -0.51195234 -0.33918288 -0.19967699 -0.97758406
0002f0 e9 7f c9 3b 31 52 a6 3e 98 37 19 3e 39 6f 7b 3d
       0.0061492813 0.32484582 0.14962614 0.061385367
000300 19 b3 97 3e b5 6b 84 3e f3 fc aa be b2 5d b9 be
       0.29628828 0.25863424 -0.3339611 -0.36204296
000310 b6 58 c0 bc 03 c2 fc bd 24 4c 1d bf a5 a6 2c 3e
       -0.0234798 -0.12341692 -0.61444306 0.16860445
000320 7f 6b fc be da 22 9a be a5 28 ef 3d be 07 0e bf
       -0.49300763 -0.30104715 0.11677674 -0.55480564
000330 3c d3 9d 3c 33 4a 93 3e a4 6e 96 3e ae 5d 2d be
       0.019265763 0.28767547 0.29381287 -0.16930267
000340 60 74 13 3e c4 4b 74 3d 14 f7 10 bf 47 9a 56 be
       0.14399862 0.05964257 -0.5662701 -0.2095729
000350 fd d7 c0 be 87 8d 95 be 9e 7b 8c 3e 93 38 70 3f
       -0.37664786 -0.2920954 0.27438062 0.93836325
000360 66 36 e1 be 8d bb be 3e de e9 8e be ac 78 03 be
       -0.43986815 0.37252465 -0.27912802 -0.12839001
000370 08 67 88 bc 12 a4 dc bd d5 ae e2 be 07 ab e6 3d
       -0.016650692 -0.107734814 -0.4427401 0.112630896
000380 db 67 f6 3d 36 69 2a 3d 90 59 e3 3e 6a 35 08 be
       0.120315276 0.041604243 0.44404268 -0.13301626
000390 dd d4 8f 3d cb 10 a9 3e b6 e7 96 3e c5 70 31 3f
       0.07023022 0.33020625 0.29473656 0.693127
0003a0 3a 8f 6d 3e a7 e4 ce 3d b1 c5 fb 3e d4 9c 6b bd
       0.23199168 0.10102206 0.49174264 -0.05752261
0003b0 d7 b7 16 3e 86 d8 18 3e 6d ec df be 2f d2 ca bb
       0.14718567 0.14926347 -0.43735066 -0.0061896066
0003c0 4e 49 1a 3e 4d 6e ee bc 64 3e 3e 3e cd 5f 73 be
       0.15067026 -0.02910533 0.18578488 -0.23767014
0003d0 83 85 a2 3d f6 ba 33 bf 7c 50 0b 3e 7e e2 f8 3b
       0.079356216 -0.70207155 0.13604921 0.0075953593
0003e0 22 79 37 3e 87 f1 e5 3d f8 ba b8 3d 72 4b e3 3c
       0.17917302 0.11227708 0.090200365 0.027745936
0003f0 3b a9 3e be ee b9 b6 3c ea f4 64 bf 86 3e 8d be
       -0.18619244 0.022305455 -0.8943621 -0.27586764

bias f4 [128]
000000 3a 2d 94 3d 38 1a b6 be 65 3d 1b 3d 53 ca af 3d
       0.07235189 -0.35566878 0.037900347 0.08583512
000010 44 18 1e 3e 2a cf 07 3d 8b 45 02 be d6 81 cc bc
       0.15438944 0.03315655 -0.12721841 -0.024964254
000020 4f 8c 9b 3c ee 86 74 bd 80 4a c0 bd 50 54 93 be
       0.018987803 -0.05969899 -0.0938921 -0.28775263
000030 47 d2 7e bd 6e a6 d0 bd 66 2c f0 3d 31 c4 a7 3e
       -0.062212255 -0.10187994 0.11727218 0.3276687
000040 f6 4b f3 3d d7 36 37 bd 85 a0 16 be 75 85 82 3d
       0.11879723 -0.044730034 -0.14709671 0.06373111
000050 05 f7 b4 bd c9 81 5e bd a2 99 a0 bc 4e 7d e2 3d
       -0.08836178 -0.05432299 -0.019604508 0.11059056
000060 a0 54 98 be c3 d4 89 be a6 fa 1d 3e 5c d9 e2 3d
       -0.29752064 -0.26920137 0.15427646 0.11076614
000070 49 11 39 be 90 7e 8c 3d 52 dc 42 be bc ea aa 3d
       -0.18073 0.068600774 -0.19029358 0.08345553
000080 15 ca 6c 3e 09 cf 38 3e 80 ce 47 3d 01 0e e4 bd
       0.23123963 0.18047728 0.048780918 -0.111354835
000090 04 c3 c5 3d fa de 4c 3e 78 45 f8 3c 1f c8 c5 3d
       0.09656337 0.20006934 0.030306563 0.09657311
0000a0 7d ac eb 3d 9b bf c1 bd 1b ae 5d 3d 2c cc 2b bd
       0.11507509 -0.09460374 0.054121118 -0.04194276
0000b0 f4 e1 05 3d 94 15 63 3d 4c a8 a7 3d f8 44 49 3d
       0.03268619 0.0554405 0.08186397 0.04913804
0000c0 95 f2 8c 3e f2 d4 c4 be 17 41 56 3e d5 33 ae 3b
       0.27528825 -0.38443714 0.20923267 0.0053162375
0000d0 c5 de e5 bd ae be 7f be 9d 43 b2 bc 3b 17 48 3b
       -0.112241305 -0.24975082 -0.021760756 0.0030531425
0000e0 29 13 7a bd a2 84 4a be 73 ef 84 bd 5f 27 2f 3d
       -0.06105343 -0.19777158 -0.06490984 0.042762157
0000f0 09 60 e0 3d 15 8b 2e 3d 29 93 5f 3d e7 1b a2 be
       0.10955817 0.042613108 0.054583702 -0.31661913
000100 ba 41 b2 bc 55 7f fc 3c da 0b 8b bd d8 27 43 3d
       -0.021759856 0.030822435 -0.0678937 0.04764542
000110 37 10 5c 3c ff c1 17 3d 67 b2 65 3d 86 a3 83 bd
       0.0134316 0.037050243 0.05607834 -0.06427674
000120 59 6f 8a bd f0 43 48 3e 41 9b 5f 3e 5e a0 e8 3d
       -0.06759519 0.19557166 0.21836568 0.113587126
000130 f4 a2 9b be 06 24 e0 bd d3 2e 55 3c 64 bb a4 3d
       -0.3039776 -0.10944371 0.013011652 0.080435544
000140 ea 25 b5 bd 5f 58 eb 3d 0f 5a 70 3c bc 62 ae bd
       -0.08845122 0.11491465 0.014669909 -0.08514926
000150 e6 30 3b be 8b 04 9b 3d f2 44 89 3e 07 e8 76 3d
       -0.18280372 0.07569226 0.26810414 0.060279872
000160 cb 74 07 3e f6 b6 81 bd 32 80 73 be 9d 89 e8 bd
       0.13228147 -0.06333725 -0.23779371 -0.11354373
000170 af 7f 01 bf 71 54 90 bd d2 0f 41 3d e0 7a 02 be
       -0.50585455 -0.07047356 0.047134228 -0.12742186
000180 a1 cc dc 3c e4 91 4a be 2b 0c f6 bd 15 ba 2c 3d
       0.026953043 -0.19782215 -0.120140396 0.04216965
000190 b9 18 02 3e 61 11 33 bc e7 85 fe 3d 90 62 68 3e
       0.12704743 -0.010929436 0.124278836 0.22693849
0001a0 8f 3c 7f bd bb ab 84 3d 6a f1 9b 3d 8a 91 1f be
       -0.062313613 0.064780675 0.076144055 -0.15582862
0001b0 9a d4 49 be 00 4e 9f bc 31 89 ad be 8f 36 31 bd
       -0.19710007 -0.019446373 -0.3389373 -0.04326492
0001c0 0c ce 07 be b8 d3 b7 3d b1 dd 70 bd 54 c8 c7 3c
       -0.13262194 0.08975929 -0.05880517 0.024387516
0001d0 67 3c 49 3e d8 76 05 3e 25 bc e1 3c 0e e3 55 3e
       0.19651948 0.13033617 0.027555535 0.20887396
0001e0 5d 74 8a bd d0 74 ac 3d c5 ba 76 3d b1 35 7a 3d
       -0.06760476 0.08420718 0.06023671 0.06108636
0001f0 0e d3 9f bd 49 c8 82 3d 22 09 02 be e1 48 ae 3d
       -0.07803927 0.063858576 -0.12698796 0.08509994

weight f4 [128, 128]
000000 d5 45 ce 3e 99 1b c4 be 99 c4 14 be e4 7c 09 be
       0.40287653 -0.38302305 -0.14528121 -0.13426548
000010 56 f8 25 3e e3 9d 9e 3c 7a a6 43 3e a4 84 a0 3d
       0.16208014 0.019362396 0.19106475 0.07837799
000020 00 2a 0b be b8 3c 65 bd 93 b3 a9 3e 26 da 74 be
       -0.1359024 -0.05596611 0.33144817 -0.23911342
000030 eb 63 ca be cc ec ff 3c 74 83 91 be f9 10 4b be
       -0.39529356 0.031240843 -0.28420603 -0.19830693
000040 b3 15 1e 3d 5d 9a 82 3e 39 99 c1 3d a3 65 d3 3d
       0.038594913 0.25508395 0.09453053 0.1032212
000050 47 87 83 be 2e 49 f1 3d 4a 57 c9 bd 5d 8f c5 3e
       -0.25689146 0.11781536 -0.09831102 0.3858594
000060 de 79 69 be 79 2f db bd 27 fa f3 be 67 89 94 3d
       -0.22800395 -0.10702414 -0.4765179 0.0725277
000070 28 4b 01 be 93 c3 8e 3e 26 5e 45 bc 6d 9f f2 3d
       -0.12626326 0.27883586 -0.0120463725 0.11846814
000080 c2 a9 17 be 20 8c 97 be e0 7f 98 3e a7 dc 00 3f
       -0.14810851 -0.29599094 0.2978506 0.5033669
000090 8d 84 e9 be 57 4a 86 be 04 18 2a be e5 21 40 3e
       -0.4560894 -0.26228592 -0.16610724 0.1876293
0000a0 83 29 76 3d 78 53 ad be ba 5c 0f be ab 72 c3 3e
       0.060098182 -0.33852744 -0.14000216 0.38173422
0000b0 93 7f d2 be 6b a9 c9 3e 06 8f 0d 3f 5d fd 38 bc
       -0.41112956 0.39387068 0.5529636 -0.011290875
0000c0 b7 ab 43 bd d7 a8 6d be af 00 1a 3e 5b f5 e6 be
       -0.047771182 -0.23208939 0.15039323 -0.45109066
0000d0 e6 8f 02 3f d7 86 be be aa 27 ba be 66 41 1f 3e
       0.5100082 -0.3721225 -0.36358386 0.15552291
0000e0 69 63 5b 3e 65 0f 6f be 7c 2f 58 3e 4b 20 14 3e
       0.2142464 -0.23345716 0.21111864 0.14465444
0000f0 bc 4b 13 3e 86 d3 75 be e7 47 15 3f d4 f0 d5 bd
       0.14384359 -0.24006471 0.5831284 -0.10446325
000100 ea db 2e 3e 21 26 ac be 5d 08 10 bf 08 35 df bd
       0.17076078 -0.3362284 -0.5626276 -0.10898787
000110 0f b7 62 3c d3 c8 33 be 06 96 a0 3e e5 d8 07 be
       0.01383759 -0.17557077 0.3136446 -0.13266332
000120 ec ff 80 bf b4 d9 bb bd 63 94 51 3d a1 4f 61 be
       -1.0078101 -0.09172383 0.051166903 -0.22003032
000130 b8 3a 5b be db 94 08 bb fe 77 96 bc 83 95 8e be
       -0.21409118 -0.0020840678 -0.018367764 -0.27848443
000140 2b 56 ab be 0c 01 9b be 6f c4 4e 3d ff f5 cd 3d
       -0.33464178 -0.30274236 0.050480302 0.10056686
000150 87 03 ac be 53 50 a5 3e dc 64 96 bd 0d 0b f4 3d
       -0.3359644 0.32287845 -0.07343456 0.1191617
000160 29 ad e5 3e 53 59 15 be 7e ac 7e be ee 1a e1 3e
       0.44858673 -0.14584856 -0.24870488 0.43965858
000170 14 8b a1 be 99 88 c3 be 00 63 d3 3c 29 6d 97 be
       -0.3155142 -0.38190153 0.025804043 -0.2957547
000180 70 36 40 3e 09 d1 1a 3e ed 2b 62 3d da 1f 8e be
       0.18770766 0.15118803 0.055217672 -0.27758676
000190 5e 86 94 3e 66 ea fa 3c 42 1d 6c bd c8 8a 26 bc
       0.29008764 0.030629348 -0.05764509 -0.010164924
0001a0 77 08 3f be af 85 85 3e 4f 12 f4 3d ba 91 07 3e
       -0.18655573 0.26078555 0.119175546 0.13239184
0001b0 4a c4 6b 3d 46 2b bb bc f9 17 0f be bc f5 4b 3d
       0.057560243 -0.022847783 -0.13973989 0.049794897
0001c0 78 47 81 3e f4 bc 96 be 6c f5 ac 3e 1b 6a 25 3f
       0.2524984 -0.29441035 0.33780992 0.6461503
0001d0 b5 d6 ac 3e 2e cd 4e be b0 a2 71 be 2b f6 87 3d
       0.33757558 -0.20195457 -0.23597217 0.0663875
0001e0 02 0d 94 be 34 19 73 be 05 94 53 be 84 1f cf bd
       -0.28916174 -0.23740083 -0.20661934 -0.10113433
0001f0 45 34 75 3e dc 4a a7 3e 85 11 4b bd e5 2b 5c be
       0.2394572 0.326743 -0.049577255 -0.2150112
000200 e9 a7 0b 3d a0 fb de bd 4b 45 75 be 2a 76 d9 3d
       0.03409568 -0.108878374 -0.23952214 0.10618241
000210 ce e9 47 3e 7f 06 cc be 91 7e bd bc 8b 8c dd 3d
       0.19522783 -0.39848706 -0.02313164 0.10817822
000220 2c ac 79 3d 9c bc 05 3e 05 db ce be 42 1c 72 be
       0.06095521 0.1306023 -0.40401474 -0.23643592
000230 c3 e2 3d bf 6f 44 35 bf 8d e3 9e be 8b e3 1e 3e
       -0.74174136 -0.70807546 -0.31032982 0.15516488
000240 f2 49 64 bb e6 ff ee be b6 a2 0b 3e d8 43 b9 3e
       -0.0034834114 -0.4667961 0.13636288 0.36184573
000250 a9 60 74 be 6d e2 62 be 88 65 cb bd 8d 41 5f be
       -0.23864998 -0.22156687 -0.09931475 -0.2180235
000260 08 ff 4c 3e 55 ed 0a be c9 46 7e be 28 bd 1f be
       0.20019162 -0.13567097 -0.2483169 -0.15599501
000270 b3 eb 83 3d 6b f0 cb bd 95 83 cc 3e 3d 65 85 3e
       0.064414404 -0.099579655 0.3994414 0.260538
000280 e4 72 3a be 88 57 c6 3c 3a 88 a6 be c0 cc 63 be
       -0.1820789 0.02421166 -0.32525808 -0.22246075
000290 f4 c6 0c bf 2c 00 10 3e 8a 60 14 3c 63 b4 fb 3e
       -0.5499108 0.14062566 0.00905622 0.49161062
0002a0 57 ce a3 3e e7 98 bc be ce c7 0f 3f 7d 92 1b be
       0.31993362 -0.36835405 0.5616425 -0.151926
0002b0 73 7b a7 be 2a 50 bc bd 53 49 74 3e c9 4f 99 3e
       -0.32711372 -0.091949776 0.23856096 0.29943684
0002c0 8e 1e 85 be ea de ed 3d 1b b8 c0 3d 32 3c 3f 3e
       -0.25999874 0.11614783 0.09410115 0.18675306
0002d0 a1 f8 93 bd 4c 15 79 bd 4b 1d 22 be d8 da bb bc
       -0.072251566 -0.060811326 -0.15831487 -0.022931501
0002e0 1a 16 8a 3c 67 bc be bc ec 9f 1b bd 7c ef b2 be
       0.016856242 -0.023283197 -0.03799431 -0.34948337
0002f0 a2 7a 1d bf ba b3 58 be b0 06 9d be 23 0c d4 3d
       -0.6151525 -0.2116231 -0.30669165 0.103538774
000300 05 20 bd bd 92 72 a4 be 07 c0 87 be d7 90 44 3d
       -0.09234623 -0.3211866 -0.26513693 0.047989693
000310 a0 d8 b8 be ed f7 27 3e 8f 28 29 be 51 b2 51 be
       -0.36102772 0.1640317 -0.16519378 -0.20478179
000320 5d f8 06 be 11 d1 8d be af 1f 1f 3e 98 11 99 3c
       -0.1318068 -0.27698568 0.1553943 0.018685147
000330 eb 78 13 3c d8 f1 29 3d 74 54 6e be 6f de 88 3e
       0.009000997 0.041490406 -0.23274404 0.26732203
000340 3c 18 ff 3c 27 97 49 bf 00 bd 19 bf ff b2 68 be
       0.031139486 -0.78746265 -0.60054016 -0.22724532
000350 ed b3 4b 3e 08 ea b5 be 1c 36 54 3e 51 a0 24 3e
       0.19892855 -0.35530114 0.20723766 0.16076781
000360 53 85 12 be f9 fa ef 3e 3f 04 a6 3c 3a ed 8c bd
       -0.14308672 0.46871164 0.020265697 -0.06881185
000370 6f 7a fa 3d 1e f2 cd 3e 78 17 8c be c0 2b 33 3e
       0.122303836 0.40223783 -0.27361655 0.17497158
000380 fe f0 97 be ae 79 da 3b 95 e9 c8 be 58 7c 1f be
       -0.2967605 0.0066673374 -0.3924071 -0.15574777
000390 d5 58 05 bf 90 a6 cb bc 36 b7 64 be b8 5e b5 3d
       -0.5208867 -0.024859697 -0.22335514 0.08855957
0003a0 aa 9f 59 3e b3 59 7c 3e 70 f6 20 be 93 1d 85 be
       0.21252313 0.24643593 -0.15719008 -0.25999126
0003b0 0f 06 af bd e1 66 fd bd 3c 2c f7 bc 58 6e d4 bd
       -0.085460775 -0.12373138 -0.03017246 -0.10372609
0003c0 85 48 12 3c b5 40 1c 3f bd 8e 87 3e ed 1b e0 be
       0.008928423 0.61036235 0.26476088 -0.43771306
0003d0 d5 8b 06 be 47 09 cd 3d 8a 58 45 3e e6 e1 6e bd
       -0.13139279 0.10011535 0.19272056 -0.058320902
0003e0 af 50 69 be 15 15 9e bd 36 2c 2c 3e 7b 43 b9 3d
       -0.22784685 -0.07718865 0.1681374 0.09046074
0003f0 84 12 f1 3c 3f dc 0b 3e ae f8 9c 3d f6 5b da 3d
       0.029427774 0.13658236 0.076646194 0.106620714

bias f4 [128]
000000 a7 35 90 3d a2 24 bb 3c c8 38 2d 3e 54 a7 24 3d
       0.07041483 0.022844616 0.16916192 0.04019864
000010 4b 57 65 3d d4 41 11 3e e6 36 1b 3c ea 01 be 3e
       0.055991452 0.14185268 0.009473538 0.37110835
000020 6c 35 f6 3d 52 67 e0 bc 6c 51 ac 3e 7d e1 8e bd
       0.12021908 -0.027393017 0.3365587 -0.06976602
000030 3d 62 8d bd cc 65 a2 bd 20 3e d4 be 07 26 31 be
       -0.06903503 -0.079295725 -0.41453648 -0.17299663
000040 c9 d9 bd 3a b5 78 4f bd 0a c4 85 3d 41 73 43 3c
       0.0014484461 -0.050652225 0.06531532 0.011929334
000050 55 5d 08 3d fc 75 7a be 01 ea 0a 3c 0c 61 de bd
       0.033292133 -0.2445907 0.008478642 -0.10858354
000060 1e 36 b0 be df 74 87 bd fd 94 45 bd 0f 0a 5b 3d
       -0.34416288 -0.06614088 -0.04823779 0.05347639
000070 48 6c a1 bd 15 64 85 3e 3e 53 43 be cf ee 9b 3d
       -0.07881981 0.2605292 -0.19074723 0.076139085
000080 1f 27 85 bd cc 6c 1f be e2 3e 97 3d 7f 55 7c 3e
       -0.065016024 -0.15568846 0.07385041 0.24641989
000090 6a 37 ed 3c 8f f1 cd 3d 55 4c 8e be 8c bc 0e 3e
       0.028957088 0.10055839 -0.27792612 0.13939112
0000a0 1d b0 b8 be 0e a0 53 3d 9e d5 09 3c d2 3e 65 bc
       -0.36071864 0.051666312 0.008412747 -0.013992028
0000b0 9f 35 ed 3d c3 12 be bd 60 30 be bd 8d e0 0c be
       0.11582493 -0.09280922 -0.092865705 -0.13757534
0000c0 81 a5 cb bb c9 d8 73 3e 94 7b af 3c bc 09 0e 3d
       -0.006214798 0.23813166 0.021421231 0.034677252
0000d0 c6 11 92 3d 83 b7 3e 3d 65 c5 98 3c a6 be 76 be
       0.07132296 0.04656173 0.018648813 -0.24096164
0000e0 65 76 4e 3d 18 91 28 be 1f cc 13 be e5 e7 82 3d
       0.05040588 -0.16461599 -0.14433335 0.063918866
0000f0 8c 93 b4 3d ad bb 84 bd 17 37 ab be fa 07 16 3c
       0.08817205 -0.06481109 -0.33440468 0.009157175
000100 99 a8 9b bd b1 a2 5a 3e 84 46 1a bc 0f b3 6b bd
       -0.07600517 0.21351124 -0.009416226 -0.05754381
000110 47 2d 0f be 7e e2 d9 3d f7 a7 88 bd 11 60 2e 3e
       -0.13982116 0.10638903 -0.06672662 0.17028834
000120 9e dc 82 3d 30 de a5 be 95 ec 8a be 09 56 40 3d
       0.06389736 -0.32396078 -0.27133623 0.04695705
000130 4a c6 f3 3b 0e 11 c0 bd f6 cc 05 be 7d ce 20 3d
       0.0074394094 -0.09378253 -0.13066468 0.039259423
000140 60 e3 2f bd 82 65 1b be 1c 57 6d 3d b7 a7 21 3d
       -0.04294145 -0.15175441 0.057944402 0.039466586
000150 71 d2 d8 3d 7d e4 1d 3a 12 0c bb be 2b 23 12 3e
       0.105870135 0.0006023122 -0.36532646 0.14271228
000160 47 1e 40 bc 63 98 5a be be 48 c5 3d 4e 1f c7 bd
       -0.011725969 -0.21347193 0.09633015 -0.09722768
000170 f3 fe ea 3d 57 d7 5e be 57 c1 a6 3d f1 e0 0a be
       0.11474409 -0.21761833 0.081423454 -0.13562371
000180 24 70 ed 3d 3e ea c9 bc fb bb 7b be 20 ee bd 3c
       0.11593655 -0.024647828 -0.24583428 0.023184836
000190 72 3e 9f 3d e4 e4 80 bd 00 3d 2d 3e 52 aa 6d bc
       0.077755824 -0.062936574 0.16917801 -0.01450594
0001a0 9d 9a 75 3e de 38 5d 3d bd c4 ae 3d 96 0c 18 bd
       0.23984762 0.05400931 0.085336186 -0.037121378
0001b0 27 fc 7c 3b e8 2b 70 bd f9 fb 55 3d 87 6d 48 be
       0.0038602443 -0.058635622 0.052242253 -0.19573031
0001c0 3f a1 19 3e f4 1b a2 bd 4f bc 3d be d9 b0 c1 3c
       0.15002917 -0.07915488 -0.18528865 0.023643898
0001d0 80 37 84 be cf 81 8d bb 72 63 6b 3c ff e2 70 bd
       -0.25823593 -0.004318453 0.014366971 -0.05881023
0001e0 0f b5 10 be a6 1b 9c bd 46 de 88 3d 2c 8a 9a bd
       -0.14131568 -0.07622461 0.0668302 -0.075458854
0001f0 1f 66 37 bd 3d 4f 12 3a e5 cc 26 bc 34 b1 ad bd
       -0.044775125 0.00055812654 -0.010180687 -0.084810644

weight f4 [3, 128]
000000 ce f9 24 3f 08 42 0d be 5a c4 cd 3e 74 ca 8b 3e
       0.6444367 -0.1379472 0.40188867 0.27302897
000010 ae 29 f1 3d 7f 87 52 3f e9 53 68 bf e7 07 8d 3e
       0.11775528 0.82238 -0.90753037 0.27545092
000020 74 3d 90 3f 80 30 1a 3f 60 e9 bd 3c 47 c1 71 bf
       1.1268754 0.60230255 0.023182571 -0.9443554
000030 47 d3 e8 bd 5a a6 d0 3d fc f0 1e bf 9c fa fd be
       -0.11368423 0.10187979 -0.6208646 -0.49605262
000040 3a f9 76 3f cd ce af be 28 b7 b0 be ef 14 8e bd
       0.9647404 -0.34337464 -0.34514737 -0.069375865
000050 b1 59 1f bc cb 1b 33 bc 99 53 9c 3e 53 ee 05 3f
       -0.009725974 -0.010931919 0.3053253 0.5231678
000060 25 d7 c3 be 29 9f c9 3e c2 7f b7 3e 6e 5e 56 3f
       -0.3825008 0.39379242 0.3583966 0.8373784
000070 5f 91 86 bf 9e 48 e8 bf 10 ab 19 bf 49 42 03 3f
       -1.0513114 -1.8147161 -0.60026646 0.5127302
000080 fc 4c 5e bf 98 72 9e 3f 0f e7 87 3f 2b cd b6 3f
       -0.8683622 1.2378721 1.0617388 1.4281362
000090 17 37 89 3f 6e b2 84 3e 83 e1 38 bf 13 cb 4b be
       1.0719937 0.2591738 -0.72219104 -0.19901685
0000a0 85 f5 f1 bd 4c dd 11 3f c0 0e 14 bf ab 99 36 3f
       -0.11814407 0.569783 -0.57835007 0.7132823
0000b0 36 ce 26 3f 65 14 89 3f 7b 23 31 bf 2c fa 2c bf
       0.651584 1.0709349 -0.69194764 -0.6756923
0000c0 dd d7 4c 3f f4 4a ff be bc d1 c5 3e e6 9e 89 3f
       0.8001688 -0.49861872 0.38636577 1.0751617
0000d0 55 ee 83 3f e4 92 6e 3e 62 70 7f bd bd 66 ae 3f
       1.0307108 0.23298222 -0.062363036 1.3625103
0000e0 38 fd 27 3f 37 e6 70 3f 44 94 9a bf 93 cc 9d 3e
       0.65620756 0.9410128 -1.2076497 0.3082014
0000f0 38 a1 2c 3f 14 56 fb bf 17 9b 51 bf 13 de 71 3f
       0.674335 -1.9635644 -0.81877273 0.94479483
000100 5f 8b 92 bd 6e 42 2c 3f 04 cb 42 bf 97 01 09 3f
       -0.07155489 0.67288864 -0.7609103 0.5351805
000110 b8 5f 89 bf 37 c2 1d 3f 50 8b 0e 39 c8 72 37 3f
       -1.0732336 0.61624473 0.00013594073 0.7165952
000120 2b 10 b9 3e b5 9e f7 be b6 ea 8d 3b 81 b9 5c 3f
       0.36145148 -0.4836327 0.0043309582 0.86220556
000130 76 10 24 3e d9 a7 d1 3e eb 0d 4c bf 71 b3 84 bf
       0.16021904 0.4094837 -0.7970874 -1.0367261
000140 e8 d5 d6 be ca e4 ba bf f4 9d 3d be 73 4d 06 3f
       -0.41960073 -1.4601071 -0.18517286 0.5246193
000150 50 33 81 bd 2d 74 f4 be cf 3c 13 c0 98 0e 34 bf
       -0.06308615 -0.47744885 -2.3005865 -0.7033477
000160 4e 1b 3c 3f a3 57 cb bd b5 46 78 3f d6 85 e6 be
       0.73479164 -0.09928825 0.9698289 -0.45023984
000170 79 fe aa 3e 89 af a2 be 5f b3 28 3f e4 45 23 bf
       0.33397272 -0.31774548 0.658987 -0.6377852
000180 c1 14 78 3f e7 f1 3f 3f 01 59 c5 be b6 c5 8e 3f
       0.9690667 0.7497849 -0.38544467 1.1154087
000190 53 26 48 3f 7f a1 8d be ff 06 20 be a0 be 33 bf
       0.7818348 -0.27662274 -0.15627669 -0.70212746
0001a0 5e 40 18 bf bf 47 46 3f ca 70 df 3e 26 67 a4 3e
       -0.59473217 0.77453226 0.4364074 0.32109946
0001b0 3a 4a 74 3f bf e6 bb bd 0b d6 14 3e 63 75 7d bf
       0.9542576 -0.09174871 0.14534776 -0.9900724
0001c0 5d 3f bc bf de 34 63 3f 6e aa ff be 4b 6b ef bd
       -1.4706837 0.88752544 -0.49934715 -0.116903864
0001d0 52 bb 9d bf e3 5a a2 3f f4 e2 80 3f a9 3a 84 3e
       -1.2322791 1.2683986 1.0069261 0.25826004
0001e0 54 75 49 3f 20 d7 2f 3f 31 72 16 3f 7b 3a d1 3d
       0.78694654 0.6868763 0.5876799 0.102162324
0001f0 f9 e4 0f 3f 6d da 6b 3f ac 9f ce 3e 38 d5 fc be
       0.5620876 0.92130166 0.40356195 -0.49381423
000200 83 4d 0c bf d9 3b df be 28 f4 45 3e 9f 48 79 3f
       -0.54805773 -0.43600348 0.1933142 0.97376436
000210 00 82 72 3f c8 ef 95 3f 00 06 0a 3f c8 27 fd bd
       0.94729614 1.17138 0.53915405 -0.12361103
000220 f9 4b 37 3f 15 50 d5 be 5c 85 0f 3f b5 e7 08 3f
       0.716003 -0.4166266 0.56062865 0.53478557
000230 d2 69 83 3b 06 69 51 bf ed bb 48 bf d1 c2 0d bf
       0.0040104175 -0.8180088 -0.7841175 -0.5537539
000240 01 21 c7 3e d0 7e d3 be 9f 51 ea 3d 04 19 8d 3e
       0.38892367 -0.41307688 0.11441349 0.27558148
000250 89 10 89 bc bd 3c 6a bf 69 2a 96 bf 1b 84 29 bf
       -0.016731517 -0.9149893 -1.1731693 -0.662172
000260 c1 f0 de be 3a c1 cf bd 46 a4 17 3e d0 b6 4e 3f
       -0.43543056 -0.10144277 0.14808759 0.807477
000270 38 ab 14 3f a7 de 0f 3f c0 9f 98 3e 1c 81 fc 3e
       0.5807376 0.56199116 0.2980938 0.49317253
000280 e6 6b 19 3f 8a 1d 8a bf be 30 1b 3f 4f b8 bc bf
       0.59930265 -1.0790265 0.6062125 -1.4743747
000290 0a ac cf 3e d9 ee 45 3e c4 f0 9e bf 5c f1 6f be
       0.40560943 0.19329394 -1.2417226 -0.23431915
0002a0 7b 98 b8 be 59 65 c0 3e a6 9f 43 3f 74 31 03 3f
       -0.36053833 0.37577322 0.7641548 0.51247334
0002b0 82 69 9a 3f 8b 06 00 3f 5c ea 07 3f 4e 3d 26 bf
       1.2063448 0.50009984 0.5309198 -0.64937294
0002c0 be 51 3e 3f cf be c2 3e 7e 5c 53 3f eb 96 4f bf
       0.7434348 0.380362 0.82563007 -0.8108966
0002d0 e6 b8 87 bf 23 f6 35 3e c3 26 9e 3d 03 11 e1 3d
       -1.0603302 0.17769675 0.07722237 0.10989573
0002e0 eb e8 42 3f 13 1e 80 bf aa 99 f6 be 58 a9 3d bf
       0.76136655 -1.0009178 -0.4816411 -0.74086523
0002f0 be ac 42 3f d0 80 61 3f 6c 7a 3f bf fc 23 fe 3e
       0.76044834 0.8808718 -0.74796176 0.4963683
000300 0e 4e b6 3c 13 05 31 3f 55 fc 3c 3f e1 ba 59 3f
       0.022254016 0.6914837 0.7382253 0.8505078
000310 85 31 de be b1 a4 6d 3f 01 cb 3b 3f 8b 8c 88 3d
       -0.43397155 0.92829424 0.73356634 0.066674314
000320 45 4a 71 3e 98 1c 7e bf 0b d5 c8 be d2 c9 5c 3f
       0.23563488 -0.9926238 -0.3922504 0.86245453
000330 e7 90 16 3f 1b 84 6e 3f fe b7 ba be b3 8e 89 bd
       0.58814853 0.93170327 -0.364685 -0.06716671
000340 f6 08 1a 3e 9b 70 00 3f 54 2c 92 be e2 ba 73 3f
       0.15042481 0.5017182 -0.28549445 0.95207036
000350 1d 35 e9 3e 81 bc 2e 3e 2b 31 88 3f 75 d7 33 3f
       0.45548335 0.17064096 1.0640005 0.70250636
000360 64 e6 a5 3f 91 e8 3c 3e 99 b1 4a 3f 3e 02 eb 3d
       1.2960935 0.18448092 0.7917724 0.11475037
000370 25 be 4d 3f 11 f3 25 bf 6d 5f 02 3f e8 13 2d 3e
       0.8036826 -0.64824015 0.5092686 0.16902125
000380 0d ca ca 3e bb f6 58 3f 0c 0e 63 be 93 b2 37 3f
       0.39607278 0.8475148 -0.22173327 0.7175686
000390 94 6e 2e 3f 07 ea 13 bf c8 30 92 3f 9d bd 23 3f
       0.6813748 -0.5777897 1.1421137 0.639612
0003a0 95 c9 8d be 53 5f 3a 3f 56 84 23 3e 33 e5 87 3e
       -0.27692857 0.72801703 0.15968451 0.26542053
0003b0 dc be 5d 3f 38 49 cb be a7 f4 45 3e ae 0d fd be
       0.86619353 -0.397043 0.19331609 -0.494245
0003c0 be fe ee be db 4b 20 3f ce 83 05 be 64 49 f6 be
       -0.46678728 0.62615746 -0.13038561 -0.48102868
0003d0 49 37 16 bf e9 08 61 bf 36 f1 71 3f 86 8b 1b 3e
       -0.5867811 -0.8790422 0.94508684 0.15189943
0003e0 24 06 69 3f 58 25 c5 3f 84 cf 75 3e 69 1e de be
       0.91024995 1.5402021 0.24004942 -0.43382576
0003f0 b3 5b 4c 3f 8a bd 81 bf 88 55 9b bf 22 26 1f bd
       0.7982742 -1.0135968 -1.2135477 -0.038854726

bias f4 [3]
000000 f2 f3 39 3e 6c 9b 2b 3e 48 43 b7 3c
       0.18159464 0.16758507 0.02237095
